Pytorch_Bootcamp/Section_7/TaxiFareRegrModel.pt (torch, 112925 bytes, 20 tensors)

embeds.0.weight f4 [24, 12]
0	0x3f047c61	0.5175229
1	0x3d985b0b	0.0743924
2	0xbec3ed2f	-0.38266894
3	0x3f3505ba	0.70711863
4	0x3f16348f	0.5867395
5	0xbe7114b8	-0.2354306
6	0x3fa938e0	1.3220482
7	0x3cb71379	0.022348152
8	0xbf979e02	-1.1845095
9	0x3f9a78ee	1.2068155
10	0x3ecf01fc	0.404312
11	0xbec4688f	-0.38361022
12	0x3da243e6	0.07923107
13	0xbfb832ff	-1.4390563
14	0x3e6c4a8f	0.23075317
15	0x3ef3760c	0.47551
16	0xbec09bd2	-0.3761888
17	0xbfb69959	-1.4265548
18	0x3f95e2d1	1.1709844
19	0xbf1b23a4	-0.6060126
20	0x3e379187	0.17926608
21	0x3fa0b707	1.2555856
22	0xbef9b33b	-0.48769554
23	0x3ee7bfc8	0.45263505
24	0x3efaccf5	0.48984495
25	0xbfa16168	-1.2607851
26	0xbea36dfa	-0.31919843
27	0x3ea42d14	0.32065642
28	0xbe4950fe	-0.19659802
29	0xbf46d874	-0.7767403
30	0xbfbb9af0	-1.4656658
31	0xbf8b2215	-1.0869776
32	0xbf84a8af	-1.0363978
33	0x3ea40e5e	0.3204221
34	0xbf83fa60	-1.0310783
35	0x3f498d8e	0.7873162
36	0xbfa7a048	-1.3095789
37	0xbeac45f8	-0.33647132
38	0xbf9a08ce	-1.2033937
39	0x3fc0a6b3	1.5050873
40	0xbe984212	-0.29737908
41	0x3ecc1bb5	0.3986489
42	0x3efdc839	0.4956682
43	0x3f6022d4	0.87553144
44	0x3f197c77	0.59955543
45	0x3e03205a	0.1280531
46	0x3e820912	0.25397545
47	0xbe9f5d9d	-0.3112611
48	0xbf95eadf	-1.1712302
49	0xbf890e4f	-1.0707492
50	0x3fc16887	1.5110024
51	0xbfb8afb6	-1.4428623
52	0xbeaddeec	-0.33959138
53	0xbfd8a409	-1.692506
54	0xbeb0aa81	-0.34505084
55	0x3fa9810f	1.324251
56	0x3e0d4371	0.13795258
57	0xbf45dc2c	-0.7728908
58	0x3f6cafd8	0.92455816
59	0x3f12410d	0.5713051
60	0x3e885454	0.26626837
61	0xbec426e0	-0.3831091
62	0x3f366465	0.7124694
63	0xc02ecd76	-2.7312903
64	0xbe048387	-0.12940799
65	0xc01b6b2b	-2.428416
66	0xbfed16d8	-1.8522596
67	0x3c9b5d15	0.018965283
68	0xbf9b708b	-1.214372
69	0x3f5c6d6d	0.8610447
70	0x3e787aab	0.24265544
71	0x3f6ffea7	0.93747944
72	0x3e9b9182	0.3038445
73	0x3f9e289c	1.2356143
74	0x3f302d28	0.688189
75	0xbf2b4b69	-0.6691194
76	0xbf2d2998	-0.6764159
77	0xbf1e7028	-0.61889887
78	0x3f2f3563	0.68440837
79	0xbe2cd51b	-0.16878168
80	0x3fd5df1f	1.6708716
81	0xbfb4876a	-1.4103825
82	0xbe223b21	-0.15842868
83	0x3fa8a152	1.3174231
84	0x3fef170f	1.8678912
85	0xbe88c783	-0.26714715
86	0x3cde9877	0.02717231
87	0xbf9d67fa	-1.2297356
88	0xbf450c82	-0.7697221
89	0xbbd041db	-0.006355507
90	0x3f3d2732	0.7388793
91	0xbfafc2ef	-1.3731364
92	0xbf322841	-0.6959267
93	0xbf87eaf8	-1.0618582
94	0xbeff4075	-0.49853864
95	0xbf96c16b	-1.1777776
96	0xbf48ae6d	-0.7839115
97	0xbf8a5ec7	-1.0810174
98	0x40320a99	2.7818968
99	0x3fbd2129	1.4775745
100	0x3e14c293	0.14527349
101	0xbf522620	-0.82089424
102	0xbf125c40	-0.5717201
103	0x3e317ae6	0.17332038
104	0x3f1a1ef0	0.60203457
105	0x3fb42330	1.4073238
106	0x3f131d9e	0.5746707
107	0xbefebdc5	-0.49754158
108	0x3f97639f	1.1827277
109	0xbc217ce1	-0.009856434
110	0x3fa1b30d	1.2632767
111	0xbdeecfd2	-0.11660732
112	0xbfb2261c	-1.391788
113	0x3f377d49	0.71675545
114	0xbe7f4695	-0.24929269
115	0xbf90962f	-1.1295832
116	0x3f819643	1.0123981
117	0x3fd11f75	1.6337725
118	0xbfb1f1c2	-1.3901904
119	0x3ead7763	0.33880147
120	0xbef8728b	-0.4852489
121	0x3fd70877	1.6799458
122	0xbf128d64	-0.57246995
123	0xbeaf7506	-0.3426897
124	0x3f399d8e	0.72506034
125	0xbf81874f	-1.0119418
126	0xbf859771	-1.0436841
127	0x3f4a0551	0.7891436
128	0x3ee83773	0.45354804
129	0xbf0b97af	-0.54528326
130	0xbfef55b2	-1.8698027
131	0xbf0de3ee	-0.5542592
132	0x3ed7c262	0.4214049
133	0x3f77d97a	0.9681622
134	0xbf71f636	-0.94516313
135	0x3ffa56a3	1.955769
136	0x3f7d6b95	0.9899228
137	0x3f865d60	1.0497246
138	0x3f888baa	1.0667622
139	0xbf8b6210	-1.0889301
140	0xbfb7639a	-1.4327271
141	0xc0083e9d	-2.1288216
142	0xbce354e1	-0.027750434
143	0xbf29a53f	-0.6626777
144	0xbfccb0a6	-1.5991409
145	0xbe9e2284	-0.30885708
146	0x3f77e15b	0.9682824
147	0x3f66790c	0.9002845
148	0x3e02a9e9	0.12760128
149	0x3f992b59	1.1966354
150	0xbf8cb059	-1.0991317
151	0x401ad553	2.4192703
152	0xbe8c6e04	-0.27427685
153	0x3f052fca	0.52026045
154	0x3fbbfdd9	1.4686843
155	0xbfc20474	-1.5157609
156	0x3ff1b992	1.8884757
157	0x3e7291b2	0.23688391
158	0xbf681340	-0.90654373
159	0xbf890531	-1.0704709
160	0xbf7e1315	-0.99247867
161	0xbe7d21d9	-0.24719943
162	0x3ea15a79	0.31514338
163	0x3f0c963b	0.54916734
164	0xbdd7335b	-0.10507842
165	0x3e1b6f13	0.1517909
166	0xbfe51f73	-1.7900223
167	0xbfd95846	-1.6980064
168	0x3e8e85b7	0.2783639
169	0xbfc82865	-1.5637327
170	0x3f967f8e	1.1757677
171	0x3f8d5cce	1.1043947
172	0xbfef0589	-1.8673564
173	0xbc9f6da0	-0.019461453
174	0x3fc3295f	1.5247
175	0xbeb6e4e5	-0.35721508
176	0xbf9d6925	-1.2297713
177	0x3f0ddd97	0.55416244
178	0x3f9d563c	1.2291942
179	0xbf678c49	-0.90448433
180	0x3b3b4d3f	0.0028579978
181	0xbea35935	-0.31903997
182	0x3c39294e	0.011301352
183	0x3e43d28f	0.1912329
184	0x3f7e9637	0.9944796
185	0x3f972518	1.1808195
186	0xbe65cb1c	-0.22440761
187	0xc00215a8	-2.0325718
188	0x3ea95a93	0.33076915
189	0xbf71f580	-0.9451523
190	0xbfdca0c2	-1.7236559
191	0xbf78c428	-0.9717431
192	0xbfc19351	-1.5123082
193	0xbfc03032	-1.5014708
194	0xbf22895a	-0.6349083
195	0xbfc7a056	-1.5595806
196	0xbf909542	-1.129555
197	0x3d5b8211	0.053590838
198	0x3fa86810	1.3156757
199	0x3ff35b58	1.9012251
200	0xbd5aeb21	-0.053446893
201	0x3eaaa311	0.33327535
202	0xbeed574f	-0.46355674
203	0xbef01c57	-0.46896622
204	0xbec1e3c0	-0.37869072
205	0xc00f5d64	-2.240075
206	0xbf8dac31	-1.1068174
207	0xbfad993e	-1.3562391
208	0x3e3cde7b	0.18444245
209	0x3f0605de	0.523527
210	0xbfdb212b	-1.7119497
211	0xbe77a7e9	-0.24185146
212	0xbf5e74be	-0.86896884
213	0xbf0e084f	-0.5548143
214	0xbee1129d	-0.43959513
215	0x3fb4f212	1.4136374
216	0xbfe8c603	-1.8185428
217	0xbf4d1ace	-0.80119026
218	0xbf0dc95b	-0.5538537
219	0xbf8c5dfc	-1.0966182
220	0x3f6efdba	0.93355906
221	0xbee23a70	-0.4418521
222	0x3f0b87f7	0.5450434
223	0xbdf08d94	-0.11745754
224	0xbf923021	-1.1420938
225	0x3dcd0fcf	0.10012781
226	0xbf9f661b	-1.2453035
227	0xbf8d208f	-1.1025561
228	0xbfd216ea	-1.6413243
229	0x3eecadf2	0.4622646
230	0xbf878248	-1.0586634
231	0xbec00425	-0.37503162
232	0x3ef6fcf7	0.48239872
233	0x3e837224	0.2567302
234	0x4007729b	2.11637
235	0xbeaee70d	-0.34160653
236	0x3fbf7d4f	1.4960116
237	0xbed94643	-0.42436418
238	0x3d84b251	0.06479324
239	0x3fb35886	1.401139
240	0xbffcb3a8	-1.9742327
241	0xbf1c19ff	-0.60977167
242	0x3deb6275	0.114933886
243	0xbf32bf0d	-0.6982277
244	0xbec1eb28	-0.37874722
245	0x3d5b9e1d	0.053617585
246	0xbf373621	-0.7156697
247	0xc02bfae4	-2.6871881
248	0x3f1da8e7	0.6158585
249	0x3f2b5f08	0.6694188
250	0xbf7da7e5	-0.9908431
251	0x3f9185ed	1.1368996
252	0xbf9b18a9	-1.2116901
253	0xbda4c5c9	-0.08045537
254	0xbf94df6a	-1.163068
255	0xbeab4d52	-0.33457428

embeds.1.weight f4 [2, 1]
0	0xbc9e8b84	-0.019353636
1	0x3eac0aff	0.3360214

embeds.2.weight f4 [7, 4]
0	0x3eb819a1	0.35957053
1	0x3eb7afd2	0.35876328
2	0x3f5fd75b	0.8743798
3	0xbfec9503	-1.8482975
4	0x3ebb915c	0.36634338
5	0xbf336855	-0.70081073
6	0x3f92cbf3	1.146849
7	0x3ebbcf5e	0.36681646
8	0x3fd814a4	1.6881299
9	0xbfc018aa	-1.5007527
10	0xbfc74264	-1.5567136
11	0x3f0fe712	0.5621196
12	0x3f32f27f	0.6990127
13	0xbe4213bb	-0.18952839
14	0xc00714aa	-2.1106362
15	0xbfe0c94d	-1.7561432
16	0xbf369de6	-0.71334684
17	0xbf10426f	-0.5635137
18	0x3fdc68be	1.7219465
19	0x3f3b1b7b	0.73088807
20	0x3fdbcb10	1.7171345
21	0xbf32d87d	-0.69861585
22	0xbfb1be6b	-1.3886236
23	0xbee9e225	-0.45680347
24	0x3f6e82cd	0.93168336
25	0xbf78a83d	-0.9713171
26	0xbf353bb9	-0.70794255
27	0x3e8f9b73	0.28048286

bn_cont.weight f4 [6]
0	0x3f707d56	0.9394125
1	0x3f82f6f7	1.0231618
2	0x3f73aba6	0.9518379
3	0x3f8a7795	1.0817744
4	0x3f6ab95d	0.9168909
5	0x3f894a7e	1.0725858

bn_cont.bias f4 [6]
0	0xbb3ce6e8	-0.0028824154
1	0xbd94e240	-0.07269716
2	0x3cb88219	0.022522973
3	0xbcbd9f65	-0.023147294
4	0x3cecb102	0.028892998
5	0xbd9e483d	-0.07728622

bn_cont.running_mean f4 [6]
0	0x42230176	40.751427
1	0xc293f3ea	-73.976395
2	0x422301f1	40.751896
3	0xc293f2ed	-73.974464
4	0x3fac957d	1.348312
5	0x405400cc	3.3125486

bn_cont.running_var f4 [6]
0	0x3a2df85c	0.00066364347
1	0x3a84dfad	0.0010137461
2	0x3a705793	0.0009168323
3	0x3a8a560c	0.0010554208
4	0x3f13a519	0.57673794
5	0x41313eae	11.077803

layers.0.weight f4 [200, 23]
0	0xbbf50340	-0.007477194
1	0x3cd02274	0.025407054
2	0x3ce574dc	0.028009824
3	0xbd089fc4	-0.03335549
4	0x3d3b98b8	0.04579994
5	0x3ad7d7a3	0.0016467463
6	0x3d87ac5e	0.06624673
7	0xbe05bd68	-0.13060534
8	0x3d895249	0.06705148
9	0xbdf56799	-0.1198265
10	0xbe15eb92	-0.14640644
11	0x3d53b033	0.05168171
12	0x3e3f34d9	0.18672504
13	0xbdb4f9b6	-0.08836691
14	0xbd0c257f	-0.034215447
15	0x3dee44f4	0.116342455
16	0xbe07c49b	-0.13258593
17	0x3de2fb3d	0.11083076
18	0x3cb3a587	0.021929516
19	0xbcef9b8d	-0.029248977
20	0xbd01cb8f	-0.03168827
21	0x3d638653	0.055548023
22	0xbe7b2110	-0.24524331
23	0xbdcf7501	-0.101297386
24	0x3df40659	0.11915273
25	0xbdaf222a	-0.08551438
26	0x3e3db41a	0.18525735
27	0x3d886243	0.06659367
28	0x3d1bbcd2	0.03802187
29	0x3d073a24	0.03301443
30	0x3e04c316	0.12965044
31	0x3e108241	0.14112188
32	0xbd2ceb07	-0.042216327
33	0xbdd3988d	-0.10331831
34	0xbdd567fc	-0.10420224
35	0xbe512b05	-0.20426567
36	0x3d8c1b87	0.06841188
37	0xbd86a7a3	-0.06574943
38	0x3de8fb53	0.11376061
39	0x3dda0111	0.10644735
40	0xbd53e750	-0.05173427
41	0x3e0565d6	0.13027129
42	0x3d82d65c	0.06388542
43	0xbcea563e	-0.028605577
44	0x3cc17c0e	0.023618724
45	0x3e623224	0.2208944
46	0xbe0c7db3	-0.13719825
47	0xbc83fc8a	-0.016111631
48	0xbd16c73d	-0.036811102
49	0xbd000d85	-0.031262893
50	0xbd1f899b	-0.03894959
51	0x3d3987a9	0.04529539
52	0xbd43f15d	-0.047837604
53	0x3d8f6cc8	0.0700317
54	0x3b83d6b0	0.0040233955
55	0xbd69aca5	-0.057049412
56	0xbd025527	-0.03181949
57	0xbe1eee5c	-0.15520614
58	0x3d58ad14	0.052899435
59	0x3e128df0	0.14311957
60	0xbe245d86	-0.16051301
61	0x3d93d8d4	0.07219091
62	0x3e07b3e0	0.1325221
63	0xbcfde0de	-0.030991014
64	0xbd53385b	-0.051567417
65	0xbc908503	-0.01764155
66	0x3da679e6	0.08128719
67	0x3d80ac37	0.062828474
68	0x3e227db7	0.15868269
69	0xbe0617f1	-0.1309507
70	0x3db0befa	0.08630176
71	0xbd3549f9	-0.04426
72	0x3e57afd3	0.21063165
73	0xbd2edaca	-0.042689122
74	0xbe843098	-0.25818324
75	0xbdf06e75	-0.11739818
76	0x3d434392	0.047671862
77	0xbdd8270d	-0.10554323
78	0xbdb66808	-0.08906561
79	0x3d8878fb	0.066637
80	0x3df4834b	0.11939105
81	0xbcf3ddd7	-0.029768867
82	0xbd557ce4	-0.052121058
83	0x3e29d340	0.16584492
84	0xbd4c924a	-0.0499442
85	0x3e29c2bb	0.1657819
86	0x3e1f3261	0.15546562
87	0xbca846cd	-0.020541573
88	0xbe059de7	-0.13048516
89	0xbc739011	-0.014865891
90	0x3e406202	0.18787387
91	0xbe2ecfd9	-0.17071475
92	0x3e07acb4	0.13249475
93	0x3d473f63	0.048644435
94	0x3d48e54b	0.049046796
95	0xbc139555	-0.0090077715
96	0xbdbea90e	-0.093095884
97	0xbd60e827	-0.054908898
98	0xbd9bcbb9	-0.076072164
99	0x3e153131	0.14569546
100	0x3d888c2b	0.0666736
101	0x3dc35b6d	0.095389225
102	0xbcf45d35	-0.0298296
103	0x3d6e3329	0.05815426
104	0xbd8be15d	-0.06830094
105	0x3d8d7281	0.069066055
106	0xbdd81bf0	-0.10552204
107	0x3daece3d	0.085354306
108	0xbdd978e6	-0.10618763
109	0x3e05b47b	0.13057129
110	0x3c0c5a76	0.008566489
111	0xbddabec3	-0.10680916
112	0x3c89bbc0	0.016813159
113	0x3dab4706	0.08363156
114	0x3e4786ad	0.19484968
115	0x3d3015fa	0.04298971
116	0xbd72ce6b	-0.059278887
117	0x3da34c16	0.079734966
118	0xbc6603d5	-0.014039
119	0x3e11a462	0.14222863
120	0xbcbde2cf	-0.02317944
121	0x3da92b91	0.08260263
122	0x3c814c53	0.015783465
123	0x3d48de54	0.049040154
124	0xbda0b03b	-0.07846113
125	0xbd19dd96	-0.037564836
126	0xbe092fe8	-0.13397181
127	0xbdfd2c0c	-0.12361917
128	0xbb5bc184	-0.0033532092
129	0x3d068c63	0.032848727
130	0xbc52b7c5	-0.012861197
131	0x3d9186f9	0.07105822
132	0xbdcd4bbb	-0.1002421
133	0xbe5ff74a	-0.21871677
134	0xbdfbfc63	-0.12303998
135	0x3e7ae025	0.24499567
136	0xbe00d22b	-0.12580173
137	0x3d0c8b78	0.034312695
138	0xbda3d1d9	-0.0799901
139	0x3e1b7347	0.15180694
140	0xbd3327b0	-0.04373902
141	0xbc2a350a	-0.010388622
142	0x3dcdba9f	0.10045361
143	0x3db4ccbc	0.088281125
144	0xbd3249c3	-0.043527376
145	0x3e2eb2f7	0.17060457
146	0xbb09420e	-0.0020943913
147	0xbd87f186	-0.06637864
148	0x3e1939d4	0.14963466
149	0xbe0c353d	-0.13692184
150	0xbe85451e	-0.26029295
151	0xbc31df5e	-0.010856478
152	0xbdbf8c18	-0.09352893
153	0xbd87e175	-0.066347994
154	0x3d712429	0.058872376
155	0x3dd149c6	0.10219149
156	0xbe258e0f	-0.16167472
157	0xbe2ba0d2	-0.16760567
158	0x3e7a2532	0.24428251
159	0xbdbd5306	-0.09244351
160	0xbe1b90f0	-0.15192008
161	0x3d875c68	0.06609422
162	0xbcc5eec5	-0.024161706
163	0x3e27c801	0.16384889
164	0xbdf0c116	-0.11755578
165	0x3ce306d7	0.027713222
166	0x3d3b7556	0.045766197
167	0xb740fec0	-1.1503405e-05
168	0xbdcb909e	-0.09939693
169	0x3ce3e34a	0.02781834
170	0xbde403b3	-0.11133518
171	0x3e29c896	0.16580424
172	0x3dfdf37f	0.12399959
173	0xbe660f61	-0.22466804
174	0xbd011295	-0.03151186
175	0x3e291cbd	0.16514869
176	0xbd924821	-0.07142664
177	0xbe3dd5c9	-0.18538584
178	0x3e9da16b	0.30787215
179	0xbe193148	-0.14960206
180	0xbd5e4a64	-0.054270163
181	0xbdfcd871	-0.123459704
182	0xbd8d7a3d	-0.06908081
183	0xbd434f9e	-0.04768335
184	0xbd419e26	-0.047269963
185	0x3dbdbf71	0.0926503
186	0x3c0e42de	0.008682935
187	0xbe14145e	-0.14460894
188	0x3dbb01a4	0.09131172
189	0xbdedd053	-0.11612
190	0x3dadfdbc	0.084956616
191	0x3da7e1d3	0.081973694
192	0x3e061cb5	0.13096888
193	0xbe4f8ee2	-0.20269349
194	0xbdeacd84	-0.1146498
195	0xba1c3ce0	-0.0005959999
196	0x3d05d099	0.032669637
197	0xbdd2cafd	-0.10292623
198	0xbdefba79	-0.11705489
199	0x3e8309d0	0.25593424
200	0x3c3be5a5	0.011468326
201	0xbdceb1fb	-0.10092541
202	0xbb180419	-0.0023195802
203	0xbda516b8	-0.08060974
204	0xbca2f2e8	-0.019891217
205	0x3e2ebe0f	0.17064689
206	0x3d582154	0.05276616
207	0x3e218ea8	0.15777075
208	0xbd5e6cc7	-0.054302957
209	0x3e112b26	0.14176616
210	0xbd30210b	-0.043000262
211	0xbd725007	-0.05915835
212	0x3da178d7	0.078843765
213	0x3da79581	0.081828125
214	0xbba185d3	-0.004929283
215	0xbdf14491	-0.11780656
216	0xbd25cf12	-0.04048068
217	0x3ca9d24a	0.020730156
218	0x3dc13b74	0.09435168
219	0x3df256c8	0.118329585
220	0xbdf54d98	-0.119776905
221	0xbdd6b560	-0.10483813
222	0x3db83a50	0.08995497
223	0xbd89fba7	-0.06737452
224	0x3dc29c8f	0.095025174
225	0xbda5a24f	-0.080875985
226	0xbcaa5817	-0.020793958
227	0x3d64592b	0.0557491
228	0x3cf2f77f	0.029659031
229	0x3e4e4031	0.20141675
230	0x3df2b9cd	0.11851845
231	0xbd12be4c	-0.035826012
232	0x3e1dd9a9	0.15415062
233	0xbe0ce470	-0.13759017
234	0x3e2ae16b	0.16687553
235	0xbe06c9c9	-0.13162912
236	0x3c9bb5ca	0.019007582
237	0xbdcef6dd	-0.10105679
238	0x3e294681	0.16530801
239	0xbe2bfe9d	-0.16796346
240	0xbe19b5de	-0.15010783
241	0xbc9a5aad	-0.018842066
242	0x3e26c85a	0.16287366
243	0x3e1b0342	0.15137962
244	0x3c1fa823	0.009744677
245	0x3c0cafbe	0.008586822
246	0x3e1cf87e	0.15329167
247	0xbcbb8559	-0.022890734
248	0x3e3ae326	0.18250713
249	0x3e44c8dc	0.19217247
250	0xbe0db367	-0.13837968
251	0x3c17674a	0.009240935
252	0x3e39d6f6	0.18148407
253	0x3ba68c4e	0.0050826436
254	0x3cb89969	0.02253409
255	0x3e56eb3b	0.20988171

layers.0.bias f4 [200]
0	0x3e0b1ed1	0.13585974
1	0xbe3c97f0	-0.18417335
2	0xbdefac9e	-0.11702846
3	0xbcac128b	-0.021004936
4	0x3e0976d5	0.13424237
5	0xbe2c7795	-0.16842492
6	0xbda9f7ca	-0.08299215
7	0x3cde409c	0.027130418
8	0xbd2739d8	-0.04082665
9	0x3d3352a2	0.043779977
10	0x3e177a3a	0.1479272
11	0xbba85c9e	-0.005137994
12	0x3ddfb3bb	0.10922953
13	0xbe550094	-0.20801002
14	0xbd9e6c1d	-0.07735465
15	0x3e65bc99	0.22435226
16	0xbd6f0c8b	-0.05836157
17	0x3e5a3712	0.2131007
18	0x3a8acee2	0.001059022
19	0xbc142379	-0.00904166
20	0x3dd35349	0.1031862
21	0x3cbafefb	0.022826662
22	0x3d2cf44d	0.04222517
23	0xbced9cc3	-0.029005414
24	0xbe0439e4	-0.12912709
25	0x3c2b9556	0.010472616
26	0x3e330485	0.17482193
27	0xbe3fc4ee	-0.18727466
28	0xbd8ba381	-0.06818295
29	0x3e2e2bea	0.1700894
30	0x3d8210b1	0.0635084
31	0x3e2aaf5d	0.16668458
32	0x3e1894a6	0.14900455
33	0x3d54d5cb	0.0519617
34	0x3d8d7066	0.06906204
35	0x3defcd60	0.11709094
36	0x3c957f3a	0.018249143
37	0xbc859e6c	-0.016310893
38	0x3e04486d	0.12918253
39	0x3c5a3a8d	0.013319624
40	0xbd653c3d	-0.05596565
41	0x3dcf5261	0.101231344
42	0xbe07dd43	-0.13267998
43	0x3e3f1ec5	0.18664081
44	0x3e41ccba	0.18925753
45	0x3e0ad4d0	0.13557744
46	0xbe51b290	-0.20478272
47	0xbdcf830e	-0.101324186
48	0x3e4659d7	0.19370209
49	0x3e5515c3	0.20809083
50	0xbdf88a01	-0.12135697
51	0xbdebcbf9	-0.11513514
52	0x3c04b323	0.00809935
53	0x3db3b0b4	0.08773938
54	0x3cff5bdc	0.031171732
55	0xbe47aa22	-0.19498494
56	0xbdf4779c	-0.11936876
57	0xbb1bf35e	-0.0023796181
58	0x3e3061d4	0.17224818
59	0xbc1ef476	-0.009701839
60	0x3ddc9e03	0.10772326
61	0xbdb6692e	-0.0890678
62	0xbe145b25	-0.14487894
63	0x3e017e53	0.12645845
64	0x3e056872	0.13028124
65	0xbd8d9fe2	-0.06915261
66	0xbc492b2e	-0.012278361
67	0xbddc09a6	-0.10744028
68	0x3e423a81	0.1896763
69	0xbe48b52d	-0.19600363
70	0x3e099d8c	0.13439006
71	0xbe217e29	-0.15770783
72	0x3e3f3739	0.1867341
73	0xbdfd41dd	-0.12366078
74	0xbe4b93af	-0.19880556
75	0x3dff7b5c	0.12474701
76	0x3d53a08a	0.051666774
77	0x3cd6dc3b	0.026228061
78	0x3db5290c	0.0884572
79	0x3e0f5d43	0.1400042
80	0x3e0e2d04	0.1388436
81	0x3d90f335	0.07077638
82	0xbcaa79b3	-0.020809984
83	0xbd227b1c	-0.039668187
84	0x3defcbaf	0.117087714
85	0xbe448f2c	-0.1919524
86	0xbd8d506e	-0.06900106
87	0x3da7e9ee	0.081989154
88	0xbd54c799	-0.051948164
89	0x3e59e34f	0.21278118
90	0x3cb92a24	0.022603102
91	0xbe38db98	-0.18052518
92	0x3e7ba0c5	0.24573047
93	0xbdc2cabc	-0.09511325
94	0x3d478a54	0.048715904
95	0xbd817fad	-0.0632318
96	0x3d8e70d6	0.069551155
97	0xbc1c24eb	-0.009530286
98	0x3d9696ee	0.07353006
99	0xbdd397b8	-0.103316724
100	0x3cc724e7	0.024309589
101	0x3e4ac782	0.19802669
102	0x3e3718e9	0.17880596
103	0x3e045141	0.12921621
104	0x3d33f773	0.043937158
105	0xbda01625	-0.07816724
106	0x3e87e5c3	0.26542482
107	0x3e0d1eef	0.13781331
108	0xbda5913f	-0.08084344
109	0xbcf9a989	-0.030476348
110	0x3e45baa5	0.1930948
111	0x3debaaca	0.11507185
112	0xbdbb09c3	-0.09132721
113	0xbd2c353d	-0.04204296
114	0x3e0bda11	0.13657404
115	0xbd3e711d	-0.046494592
116	0x3b582982	0.0032983725
117	0xbdba6bf5	-0.091026224
118	0x3d83a3f0	0.06427753
119	0xbddffcdc	-0.10936901
120	0x3e046a8d	0.12931271
121	0xbc90d3fe	-0.01767921
122	0xbe516a90	-0.20450807
123	0x3cc11eeb	0.023574313
124	0x3deee085	0.116639175
125	0xbdbea4a3	-0.09308746
126	0xbd1b3cba	-0.03789971
127	0xbc1a5c6a	-0.009421447
128	0xbc125430	-0.008931205
129	0x3c53d09a	0.012928152
130	0x3dad1999	0.08452148
131	0x3e51de84	0.20495039
132	0x3db816f5	0.08988754
133	0x3d222258	0.039583534
134	0xbdc31d38	-0.095270574
135	0x3e02f973	0.1279047
136	0x3d8df92d	0.06932292
137	0xbd5223e6	-0.051303767
138	0x3e717b5f	0.23582219
139	0xbb9e592c	-0.0048324075
140	0x3e5a2513	0.21303205
141	0xbda4d3d0	-0.080482125
142	0x3ce00e10	0.027350456
143	0x3e1e8d6c	0.15483636
144	0xbcb0779e	-0.021541413
145	0x3e2c1eb2	0.16808584
146	0x3d9ad671	0.07560433
147	0x3dc1d2bf	0.09464025
148	0xbc1a2909	-0.009409198
149	0x3d8beb77	0.06832021
150	0x3e492ef9	0.19646825
151	0xbbb840d2	-0.0056229616
152	0xbdcd71aa	-0.10031445
153	0xbdb2414c	-0.08703861
154	0xbd29dc8b	-0.04147009
155	0x3dce08b8	0.10060257
156	0x3de2b202	0.110691085
157	0x3d20bd91	0.039243285
158	0xbdc39640	-0.09550142
159	0x3e258571	0.16164185
160	0x3e2bb8bc	0.1676969
161	0x3df8824c	0.12134227
162	0xbe16d913	-0.14731245
163	0x3dc888c5	0.09791712
164	0xbe208cf8	-0.15678775
165	0xbdd09b4d	-0.10185871
166	0x3e2a8745	0.16653164
167	0x3d314bac	0.043285057
168	0x3df3a738	0.11897129
169	0xbe746788	-0.23867619
170	0xbd97be5e	-0.074093565
171	0x3df1e0fe	0.11810492
172	0x3e0afce6	0.13573036
173	0xbe148fb7	-0.14507948
174	0x3d2ba33d	0.041903723
175	0xbd075d7b	-0.033048134
176	0xbe01d7eb	-0.12680022
177	0x3e5ca5e3	0.21547656
178	0xbe378ef9	-0.17925633
179	0xbe3df95b	-0.18552153
180	0x3e100a10	0.14066339
181	0xbcf9aa21	-0.030476632
182	0x3e296504	0.1654244
183	0x3d5a6cdf	0.053326484
184	0x3cc29840	0.02375424
185	0xbdb9bda2	-0.09069373
186	0x3d85ccb4	0.06533185
187	0x3d6984d3	0.057011437
188	0x3d9c909b	0.07644769
189	0x3db06bbb	0.08614298
190	0xbe1644e1	-0.14674713
191	0x3d9d58b9	0.07682938
192	0xbe146858	-0.14492929
193	0xbd9f7c79	-0.07787413
194	0x3e63b36f	0.22236417
195	0x3dcf2eca	0.10116346
196	0xbe3c8a4b	-0.1841213
197	0xbd850e9a	-0.06496926
198	0x3de9580f	0.11393749
199	0x3de2ef59	0.11080808

layers.2.weight f4 [200]
0	0x3f837d32	1.0272582
1	0x3f7ad648	0.9798322
2	0x3f75b1ba	0.95974314
3	0x3f7db1f2	0.9909965
4	0x3f834b43	1.0257343
5	0x3f7ba227	0.982943
6	0x3f77c106	0.96778905
7	0x3f8010b6	1.00051
8	0x3f7c3bc9	0.98528725
9	0x3f8248e9	1.01785
10	0x3f79e5d2	0.976163
11	0x3f7a6f7b	0.97826356
12	0x3f80ea9c	1.0071597
13	0x3f81d08b	1.0141767
14	0x3f835e6e	1.0263193
15	0x3f87a1e1	1.0596277
16	0x3f7c9064	0.9865782
17	0x3f7b8d92	0.98262894
18	0x3f7f8080	0.9980545
19	0x3f7b1682	0.9808122
20	0x3f7acb3e	0.9796637
21	0x3f812a44	1.0091023
22	0x3f788a19	0.9708572
23	0x3f7837b3	0.9695999
24	0x3f78edca	0.9723784
25	0x3f83bc8b	1.0291914
26	0x3f81e64d	1.0148407
27	0x3f7e0b96	0.9923643
28	0x3f8022d2	1.0010626
29	0x3f7936d1	0.9734927
30	0x3f8059ec	1.0027442
31	0x3f7f0106	0.99610937
32	0x3f82c901	1.0217592
33	0x3f7f3b84	0.9970019
34	0x3f82a134	1.0205445
35	0x3f824f4f	1.0180453
36	0x3f85adb6	1.0443637
37	0x3f80d4cc	1.006494
38	0x3f7d03c4	0.9883387
39	0x3f79b8a2	0.9754735
40	0x3f7da383	0.99077624
41	0x3f80a761	1.005108
42	0x3f7c0faa	0.984614
43	0x3f7e3c8c	0.9931114
44	0x3f81c6c0	1.0138779
45	0x3f8350d8	1.0259047
46	0x3f824fd7	1.0180615
47	0x3f7c170c	0.98472667
48	0x3f7d4d7a	0.98946345
49	0x3f7e0ec8	0.99241304
50	0x3f780992	0.96889603
51	0x3f803096	1.0014827
52	0x3f7b97bd	0.9827841
53	0x3f807c0e	1.0037858
54	0x3f8341ea	1.025449
55	0x3f7a128d	0.97684556
56	0x3f81acc6	1.0130851
57	0x3f8052fa	1.0025322
58	0x3f7d6c68	0.9899354
59	0x3f80e3c7	1.0069512
60	0x3f825414	1.0181909
61	0x3f8022b3	1.0010589
62	0x3f7fb86f	0.998908
63	0x3f848835	1.0354067
64	0x3f7f06e0	0.99619865
65	0x3f81730e	1.0113237
66	0x3f7e0073	0.99219435
67	0x3f822146	1.0166404
68	0x3f79a965	0.975241
69	0x3f81c0a6	1.0136917
70	0x3f7a36c3	0.9773981
71	0x3f809608	1.0045786
72	0x3f808283	1.0039829
73	0x3f816a91	1.0110646
74	0x3f7e121b	0.99246377
75	0x3f7f9a53	0.99844855
76	0x3f8035c6	1.001641
77	0x3f8221e3	1.0166591
78	0x3f79cbe0	0.97576714
79	0x3f809000	1.0043945
80	0x3f81d8fd	1.0144345
81	0x3f83dc5e	1.0301626
82	0x3f8027dd	1.0012165
83	0x3f81d0ab	1.0141805
84	0x3f7d6162	0.9897672
85	0x3f78404f	0.9697313
86	0x3f7932e9	0.9734331
87	0x3f81c4dc	1.0138202
88	0x3f8349c8	1.0256891
89	0x3f827e6e	1.0194833
90	0x3f83e68c	1.0304732
91	0x3f80e836	1.0070865
92	0x3f8270ee	1.0190713
93	0x3f8240b0	1.0175991
94	0x3f80ade7	1.0053071
95	0x3f7a7c3c	0.97845817
96	0x3f7d70ee	0.9900044
97	0x3f852545	1.0401999
98	0x3f852bec	1.0404029
99	0x3f74e235	0.95657665
100	0x3f808307	1.0039986
101	0x3f7d815a	0.990255
102	0x3f82ecce	1.0228517
103	0x3f7d7ee1	0.99021727
104	0x3f79d2b5	0.9758714
105	0x3f81b2d7	1.0132703
106	0x3f7c308f	0.98511595
107	0x3f78c240	0.971714
108	0x3f7c83c0	0.98638535
109	0x3f7ecd54	0.99532056
110	0x3f7ac802	0.9796144
111	0x3f803f00	1.0019226
112	0x3f826370	1.0186596
113	0x3f80a3fe	1.0050046
114	0x3f7f5897	0.9974455
115	0x3f7b4c9b	0.98163766
116	0x3f822a66	1.0169189
117	0x3f78c25e	0.9717158
118	0x3f7c4d75	0.9855569
119	0x3f7eb037	0.9948763
120	0x3f7a0018	0.97656393
121	0x3f80a9d6	1.005183
122	0x3f835e65	1.0263182
123	0x3f77db1d	0.96818715
124	0x3f817ac1	1.0115587
125	0x3f7f8a80	0.9982071
126	0x3f834883	1.0256504
127	0x3f7f9c04	0.99847436
128	0x3f88ba9d	1.068195
129	0x3f7cd36e	0.98760116
130	0x3f865ec2	1.0497668
131	0x3f818e47	1.0121545
132	0x3f80b0ec	1.0053992
133	0x3f7f10ed	0.996352
134	0x3f79997d	0.9749983
135	0x3f831530	1.0240841
136	0x3f80c0f5	1.0058886
137	0x3f830226	1.0235031
138	0x3f811ed6	1.0087535
139	0x3f78ebec	0.9723499
140	0x3f826486	1.0186927
141	0x3f7c7183	0.98610705
142	0x3f7419b6	0.9535173
143	0x3f795691	0.97397715
144	0x3f7fb5ec	0.99886966
145	0x3f794f20	0.9738636
146	0x3f82c143	1.0215229
147	0x3f74acc2	0.9557611
148	0x3f7b274d	0.98106843
149	0x3f7a4b40	0.9777107
150	0x3f85b8ac	1.0446982
151	0x3f75f34c	0.96074367
152	0x3f7ba4c7	0.98298305
153	0x3f7ac288	0.9795308
154	0x3f860ec1	1.0473253
155	0x3f7999d9	0.9750038
156	0x3f82da97	1.0222958
157	0x3f7b5dd9	0.98190075
158	0x3f7acd26	0.9796928
159	0x3f816658	1.0109358
160	0x3f7e128d	0.99247056
161	0x3f80d4ef	1.0064982
162	0x3f726dba	0.9469868
163	0x3f81fda8	1.0155535
164	0x3f81bcb9	1.0135719
165	0x3f7743ff	0.9658813
166	0x3f7c5341	0.98564535
167	0x3f7f5ff9	0.9975582
168	0x3f7af88f	0.9803552
169	0x3f7bbf66	0.98338926
170	0x3f848376	1.0352619
171	0x3f8067d2	1.0031683
172	0x3f7df94c	0.9920852
173	0x3f808e6d	1.0043465
174	0x3f8184c0	1.0118637
175	0x3f8087a5	1.0041395
176	0x3f769440	0.9631996
177	0x3f800348	1.0001001
178	0x3f7f286c	0.99671054
179	0x3f7c9de0	0.986784
180	0x3f7617cb	0.96130055
181	0x3f81e674	1.0148454
182	0x3f7b7aaf	0.98234075
183	0x3f812741	1.0090104
184	0x3f7f981b	0.9984147
185	0x3f80fed9	1.0077773
186	0x3f80d37c	1.006454
187	0x3f7eeed8	0.99583197
188	0x3f7ca2bb	0.98685807
189	0x3f83cea4	1.0297437
190	0x3f792a1b	0.9732987
191	0x3f823040	1.0170975
192	0x3f812fc2	1.00927
193	0x3f7e6a0c	0.99380565
194	0x3f81fec9	1.0155879
195	0x3f832fdc	1.024898
196	0x3f7daa4d	0.99087983
197	0x3f7d308b	0.98902196
198	0x3f7c70c0	0.9860954
199	0x3f807d1b	1.0038179

layers.2.bias f4 [200]
0	0x3d80fd38	0.06298298
1	0xbcbbc415	-0.022920648
2	0xbd62efb0	-0.055404365
3	0x3d8c718f	0.06857597
4	0xbd8f19e6	-0.069873616
5	0xbd576679	-0.05258796
6	0xbd6d6d4b	-0.057965558
7	0x3ceb4d47	0.028723372
8	0xbd673edf	-0.056456443
9	0xbd7c62c2	-0.06161762
10	0xbd205c8e	-0.039150767
11	0xbd848e6a	-0.06472476
12	0xbd7563ee	-0.059909754
13	0xbd65284c	-0.055946633
14	0x3d75157e	0.05983495
15	0x3d8a55b2	0.06754626
16	0x3d4bc408	0.049747497
17	0x3d81b258	0.063328445
18	0xbd61b635	-0.055105407
19	0xbd5f7635	-0.05455609
20	0x3d347de3	0.044065367
21	0x3d6e31ec	0.058153078
22	0xbd56dc47	-0.052456167
23	0xbd0dc93b	-0.034615736
24	0xbd3ca3c7	-0.046054628
25	0x3cd80a1e	0.026372012
26	0x3d717ec2	0.058958776
27	0xbd25b19b	-0.04045258
28	0x3d8aa808	0.06770331
29	0x3d9c2eeb	0.076261364
30	0x3d805ed3	0.06268086
31	0x3d6b971c	0.057517156
32	0xbd9d2d6e	-0.07674681
33	0xbce167c5	-0.027515301
34	0x3d35c424	0.044376507
35	0xbd368679	-0.044561837
36	0x3d92ed90	0.07174218
37	0xbd8665c6	-0.065623805
38	0xbd8275c0	-0.06370115
39	0xbcc5d65f	-0.024150072
40	0xbd62c6aa	-0.055365242
41	0x3d6f9bea	0.0584983
42	0x3a313bca	0.00067609234
43	0xbd4ad7a0	-0.049522042
44	0xbd25e758	-0.04050383
45	0xbc9d0f60	-0.01917237
46	0xbd879951	-0.0662104
47	0xbc2e0df7	-0.010623447
48	0xbc269c46	-0.010169094
49	0x3c6758b6	0.014120271
50	0xbd794f26	-0.060866497
51	0xbd431474	-0.047626927
52	0xbd4af92e	-0.049554043
53	0x3d678ca3	0.056530606
54	0xbd3c090c	-0.045907065
55	0xbd36ccd7	-0.044628944
56	0x3d9b5a67	0.07585602
57	0xbd4db9cc	-0.050226018
58	0x3c901e88	0.017592683
59	0x3d834dc2	0.064113155
60	0x3d51b928	0.05120197
61	0xbd5eedec	-0.05442612
62	0x3d929a8f	0.07158386
63	0x3d824458	0.06360692
64	0x3d5a93e0	0.05336368
65	0x3d60563e	0.054769747
66	0xbd45d136	-0.048295222
67	0xbd771002	-0.060318
68	0xbd139213	-0.03602798
69	0xbd6e1e48	-0.058134347
70	0xbd38b13d	-0.045090903
71	0xbd38b1ec	-0.045091555
72	0x3d764065	0.060120005
73	0x3da02b6f	0.07820784
74	0xbd662f23	-0.056197297
75	0x3d8ae633	0.06782188
76	0xbd744630	-0.05963725
77	0xbd7cb83c	-0.061699137
78	0x3d2c3a47	0.042047765
79	0xbd88cfc3	-0.066802524
80	0xbd4481f0	-0.04797548
81	0xbda18bd8	-0.07888001
82	0xbd5b3d0a	-0.05352501
83	0xbd459b7c	-0.048243985
84	0x3d25270a	0.040320434
85	0xbd927e5e	-0.07153009
86	0xbd81da7a	-0.06340499
87	0x3d71532d	0.058917213
88	0xbd5e90c7	-0.05433729
89	0x3da4685c	0.080277175
90	0xbd91d1e1	-0.07120109
91	0xbd73f8f2	-0.059563585
92	0x3d8f648f	0.07001602
93	0x3d86046f	0.065438144
94	0x3d9d56bd	0.0768256
95	0xbd8f0a1e	-0.069843516
96	0xbd3db7e3	-0.046317946
97	0xbd828c55	-0.063744225
98	0x3d8b787b	0.06810089
99	0xbd46068d	-0.04834609
100	0xbd41e260	-0.04733503
101	0xbd9d0374	-0.07666674
102	0xbd613bb2	-0.05498857
103	0xbd111409	-0.035419498
104	0xbd5242aa	-0.051333107
105	0x3d876a51	0.06612075
106	0x3d7c0f9f	0.061538335
107	0x3d3b85f5	0.04578205
108	0x3d4d6e85	0.050154228
109	0x3aa01a7a	0.0012214922
110	0xbd68a6f6	-0.05679985
111	0xbd840cc0	-0.06447744
112	0x3cd579dc	0.026059084
113	0x3c17acf5	0.009257545
114	0x3b96994a	0.00459591
115	0xbd53e50f	-0.05173212
116	0xbd4fcada	-0.050730564
117	0xbd4520b7	-0.048126902
118	0xbd49a2fd	-0.049227703
119	0xbd56cb19	-0.052439783
120	0xbd196029	-0.03744522
121	0x3d49890b	0.04920296
122	0xbd8eaae0	-0.069661856
123	0xbb5082ea	-0.0031816312
124	0xbd726e2f	-0.05918711
125	0xbd79cd0a	-0.060986556
126	0xbd83d90d	-0.064378835
127	0x3d896a13	0.06709685
128	0x3d8b3a2f	0.06798207
129	0xbcebf9b1	-0.028805586
130	0xbd87c45f	-0.06629252
131	0xbd7367a8	-0.059425026
132	0xbcf5862b	-0.029971203
133	0x3d3d492c	0.04621236
134	0x3d94c729	0.07264549
135	0xbcd24907	-0.025669588
136	0xbd61c35a	-0.055117942
137	0x3d9f9c3f	0.077934735
138	0x3d801f4c	0.062559694
139	0xbd28f9ed	-0.041253973
140	0x3d160b9e	0.036632173
141	0x3d54d680	0.051962376
142	0xbd458098	-0.04821834
143	0xbd764d85	-0.060132522
144	0xbd7cbc27	-0.061702874
145	0xbd54c498	-0.0519453
146	0xbd471ed4	-0.048613384
147	0xbd458482	-0.048222072
148	0xbcf85ba9	-0.030317144
149	0xbd06cd45	-0.032910604
150	0x3d4af3f3	0.049549054
151	0xbd243c85	-0.04009678
152	0xbd10bf51	-0.035338704
153	0xbc826a2d	-0.01591977
154	0x3d80a50f	0.062814824
155	0xbd421036	-0.04737874
156	0xbd8ad160	-0.06778216
157	0x3d57e648	0.052709848
158	0xbd11b90b	-0.03557686
159	0xbd4652c2	-0.048418768
160	0xbd579c99	-0.052639578
161	0x3d8d9135	0.06912462
162	0xbd79fddd	-0.06103312
163	0x3d87150e	0.06595813
164	0x3d7b69fb	0.061380368
165	0xbd713ccc	-0.05889587
166	0xbd6175d3	-0.055044007
167	0xbd58739b	-0.052844625
168	0x3d709232	0.058733173
169	0xbc408d64	-0.01175246
170	0x3d9b0c11	0.07570661
171	0x3ccdc18d	0.025116706
172	0xbd4fd335	-0.050738532
173	0x3d0442e0	0.03229034
174	0xbd58baea	-0.05291263
175	0x3d859246	0.0652204
176	0xbd24db4c	-0.0402482
177	0x3d70ecf2	0.05881972
178	0x3d8513b3	0.06497898
179	0xbca7d6ec	-0.020488225
180	0xbd7adb0c	-0.061244056
181	0x3c763432	0.015027093
182	0xbcf0f61f	-0.029414235
183	0x3d87899e	0.06618045
184	0xbd64f268	-0.05589524
185	0x3d7fc841	0.062446836
186	0x3d81680c	0.063186735
187	0x3c62ccd6	0.013842782
188	0xbd0cc628	-0.034368664
189	0x3d3e9d3d	0.046536673
190	0xbd2b8499	-0.0418745
191	0xbd7b45cf	-0.06134587
192	0xbd80bfbc	-0.062865704
193	0xbaf9543f	-0.00190223
194	0xbd608f5d	-0.054824222
195	0x3d8c5ffa	0.068542436
196	0x3d2c2755	0.042029697
197	0x3d87a062	0.066223875
198	0x3d5bdab2	0.05367536
199	0x3d3a86ad	0.045538593

layers.2.running_mean f4 [200]
0	0x3eb2381d	0.34808436
1	0x3d5f909f	0.05458128
2	0x3d3f707f	0.046738144
3	0x3ddc499d	0.10756228
4	0x3ea62019	0.32446364
5	0x3d860bfd	0.06545255
6	0x3c5f6f2a	0.013637343
7	0x3e0c08a4	0.13675171
8	0x3e1c30c1	0.15252973
9	0x3e91a38f	0.28445098
10	0x3e8241b2	0.25440747
11	0x3ed49450	0.41519403
12	0x3eca4aba	0.39510137
13	0x3d9eb5df	0.07749533
14	0x3e88eb47	0.26742002
15	0x3f1cb360	0.61211205
16	0x3e910641	0.28325084
17	0x3f115459	0.5676933
18	0x3ddfe03b	0.109314404
19	0x3ef8252c	0.4846586
20	0x3dc350c3	0.095368885
21	0x3ee92df2	0.45542866
22	0x3e2828a0	0.16421747
23	0x3d3b5aec	0.045741007
24	0x3e0d5070	0.13800216
25	0x3d65245d	0.05594288
26	0x3e8ba955	0.27277628
27	0x3da194b1	0.07889689
28	0x3e9e6219	0.30934218
29	0x3e2ae3c8	0.16688454
30	0x3e4e5e65	0.20153196
31	0x3e62df7e	0.22155568
32	0x3eaa22d7	0.33229706
33	0x3ed0dea0	0.4079485
34	0x3e46d6fd	0.19417949
35	0x3da26484	0.07929328
36	0x3e94f6d8	0.29094577
37	0x3dda4c95	0.10659138
38	0x3e876b19	0.26448897
39	0x3e4d8be4	0.20072895
40	0x3e0195b6	0.12654766
41	0x3e7ac6d4	0.2448991
42	0x3d91c923	0.07118442
43	0x3ec50a49	0.3848441
44	0x3ed0df55	0.4079539
45	0x3e45def9	0.19323339
46	0x3cee7477	0.02910827
47	0x3de5735f	0.11203646
48	0x3e758797	0.23977505
49	0x3eac92cd	0.3370575
50	0x3e203174	0.15643865
51	0x3d894e9f	0.06704449
52	0x3e052d71	0.13005616
53	0x3eca0404	0.3945619
54	0x3dd475b4	0.103740126
55	0x3ed84879	0.42242792
56	0x3f1a0943	0.6017038
57	0x3e58009d	0.21093984
58	0x3f35fae4	0.71085954
59	0x3da3caad	0.07997642
60	0x3e544721	0.20730259
61	0x3e32929b	0.17438738
62	0x3e6b4940	0.22977161
63	0x3e8e1dfe	0.27757257
64	0x3ed42dc2	0.4144116
65	0x3e89cbb6	0.26913232
66	0x3e12acbc	0.14323705
67	0x3de9f718	0.114240825
68	0x3f12756b	0.57210416
69	0x3cad55fd	0.021159166
70	0x3f548456	0.8301443
71	0x3e23c61d	0.15993543
72	0x3ec81026	0.3907482
73	0x3d89a788	0.06721407
74	0x3d3122cd	0.04324608
75	0x3e54c378	0.2077769
76	0x3d79f74e	0.061026864
77	0x3daf58e4	0.085618764
78	0x3ed609d6	0.4180438
79	0x3f04c0e5	0.51856834
80	0x3df0f528	0.1176551
81	0x3e8694f2	0.2628551
82	0x3da7e1cb	0.081973635
83	0x3dcbf199	0.099581905
84	0x3e85766f	0.2606692
85	0x3ec022b3	0.37526473
86	0x3cbc804e	0.0230104
87	0x3f059a04	0.52188134
88	0x3e1a94c2	0.15095809
89	0x3e15ec87	0.1464101
90	0x3dd81a3a	0.10551877
91	0x3e01309f	0.12616204
92	0x3f2767b4	0.65392613
93	0x3ead8707	0.3389208
94	0x3e47a476	0.1949633
95	0x3e2b6e6b	0.1674134
96	0x3d386557	0.04501852
97	0x3d14e1e2	0.03634823
98	0x3ebb0e6f	0.3653445
99	0x3d941787	0.0723105
100	0x3eb6b7b7	0.35687038
101	0x3e06d196	0.13165888
102	0x3ea6d4dc	0.32584274
103	0x3dcef6e4	0.101056844
104	0x3e413558	0.18868005
105	0x3e88a071	0.26684907
106	0x3e8b2f22	0.27184397
107	0x3e1ba6d4	0.15200359
108	0x3e92d84c	0.28680646
109	0x3da33de1	0.07970787
110	0x3e749663	0.23885493
111	0x3e6f5abb	0.23374455
112	0x3e26649f	0.16249321
113	0x3d15c828	0.036567837
114	0x3e8e90aa	0.27844745
115	0x3e92ca3b	0.28669915
116	0x3dc64823	0.09681728
117	0x3db90dd5	0.090358414
118	0x3e8c41b5	0.2739388
119	0x3d5a8796	0.05335196
120	0x3e5b60c1	0.21423627
121	0x3ee7e1b4	0.45289385
122	0x3ece5f24	0.40306962
123	0x3ccf0131	0.025269123
124	0x3eb286f2	0.3486858
125	0x3e7b226e	0.24524853
126	0x3e163798	0.14669645
127	0x3e838407	0.25686666
128	0x3ec24733	0.37944946
129	0x3c8a490d	0.016880536
130	0x3f24fb83	0.64446276
131	0x3efda52c	0.4954008
132	0x3e4cd412	0.20002773
133	0x3e602b42	0.21891502
134	0x3dbdd27e	0.09268664
135	0x3db62249	0.08893258
136	0x3dfe328a	0.12411983
137	0x3e670326	0.22559795
138	0x3f351b19	0.7074447
139	0x3e1e9dbf	0.15489863
140	0x3e6bd768	0.2303139
141	0x3e47840f	0.1948397
142	0x3e7dea4e	0.24796411
143	0x3eaf0512	0.34183556
144	0x3e99cc99	0.30038908
145	0x3ea719f7	0.32636997
146	0x3d1462db	0.03622709
147	0x3e080bbd	0.13285728
148	0x3e09bce6	0.13450965
149	0x3ee0500d	0.43811074
150	0x3e8b9a9c	0.27266395
151	0x3eeb22c4	0.45924962
152	0x3e8bfd54	0.27341712
153	0x3de00d00	0.109399796
154	0x3f03b8a2	0.514536
155	0x3ec611a5	0.38685337
156	0x3e9db32a	0.30800754
157	0x3ecbeb98	0.3982818
158	0x3c907801	0.017635347
159	0x3e2615aa	0.16219202
160	0x3eb43642	0.35197645
161	0x3edecacc	0.43514097
162	0x3dde8cab	0.10866674
163	0x3e42e656	0.19033179
164	0x3e93250a	0.28739196
165	0x3e31e139	0.17371072
166	0x3ebd6622	0.36991984
167	0x3e1d8e99	0.15386428
168	0x3e923aec	0.2856058
169	0x3c9ae67f	0.018908737
170	0x3e4a71f2	0.19770029
171	0x3e07e592	0.13271168
172	0x3eaef29c	0.3416947
173	0x3d8faff8	0.07015985
174	0x3ddd4a33	0.10805168
175	0x3ea79966	0.3273422
176	0x3ebb4054	0.36572516
177	0x3ec68881	0.3877602
178	0x3dea27a2	0.114333406
179	0x3ea16c79	0.3152807
180	0x3e712222	0.23548177
181	0x3d6266a4	0.055273667
182	0x3d9697c2	0.07353164
183	0x3f0f13bc	0.5588949
184	0x3ea1c9b1	0.3159919
185	0x3ec421f3	0.3830715
186	0x3eb3b7cc	0.35101163
187	0x3dff9966	0.1248043
188	0x3ebeb750	0.3724923
189	0x3ef34f56	0.47521466
190	0x3d844580	0.064585686
191	0x3e86a238	0.26295638
192	0x3e5f444b	0.21803395
193	0x3ef50b94	0.47860396
194	0x3e7ffd50	0.24998975
195	0x3e5c060c	0.21486682
196	0x3e3edf2c	0.18639821
197	0x3e203188	0.15643895
198	0x3e80b2cd	0.25136414
199	0x3eb243e6	0.34817427

layers.2.running_var f4 [200]
0	0x3d99b30a	0.07504852
1	0x3d3e3262	0.046434768
2	0x3cafea85	0.021474132
3	0x3d2f7a63	0.042841326
4	0x3dc2f60e	0.095195875
5	0x3d30a1d1	0.04312307
6	0x3bdca0a0	0.006733015
7	0x3d6fb9ef	0.05852693
8	0x3d8d21f6	0.06891243
9	0x3d9ec7a0	0.07752919
10	0x3e0dd3fd	0.13850398
11	0x3e2271e2	0.15863755
12	0x3e0f43d5	0.1399072
13	0x3d2c9270	0.04213184
14	0x3d699eea	0.057036318
15	0x3dc4b3e5	0.09604625
16	0x3d5c5bf3	0.053798627
17	0x3e48b2f3	0.19599514
18	0x3d9fc7f1	0.07801808
19	0x3de9d880	0.11418247
20	0x3d13b124	0.036057606
21	0x3e2d4d44	0.16924006
22	0x3db265c9	0.0871082
23	0x3c921063	0.01783008
24	0x3da37e3e	0.07983063
25	0x3c48dab4	0.012259174
26	0x3d1fbad6	0.03899654
27	0x3d3058ea	0.043053545
28	0x3e06a08b	0.1314718
29	0x3d8b044b	0.06787928
30	0x3d957093	0.072968625
31	0x3cf2ca5d	0.02963751
32	0x3e0048ef	0.12527822
33	0x3e30cbd4	0.17265254
34	0x3d4ea241	0.050447706
35	0x3d2c2553	0.042027783
36	0x3d9b4c6d	0.075829364
37	0x3d1f5ab8	0.038904876
38	0x3e01c94e	0.12674448
39	0x3d998b61	0.074972875
40	0x3d901eb8	0.07037109
41	0x3d03b8a6	0.032158516
42	0x3ccd9800	0.025096893
43	0x3e7f0551	0.24904372
44	0x3df9bd8e	0.12194358
45	0x3d9c925d	0.07645104
46	0x3ca27d60	0.019835174
47	0x3d115061	0.035477046
48	0x3dca12f0	0.09866893
49	0x3e2a4738	0.1662873
50	0x3d681fa9	0.05667082
51	0x3cca5bca	0.024701972
52	0x3d81bcec	0.06334862
53	0x3d911b41	0.070852764
54	0x3d800dc5	0.06252626
55	0x3dbb0cdd	0.09133313
56	0x3e1fb986	0.15598115
57	0x3dc565ed	0.096385814
58	0x3e343334	0.17597657
59	0x3cfed651	0.031108053
60	0x3dad5391	0.08463205
61	0x3d9d41f7	0.076785974
62	0x3dc5bb23	0.09654834
63	0x3d22ce4d	0.039747525
64	0x3dc7e1b8	0.09759849
65	0x3ddd2e09	0.10799796
66	0x3d88dd26	0.06682806
67	0x3d98ba9e	0.074574694
68	0x3e6a74f4	0.22896177
69	0x3c80c16f	0.015717236
70	0x3def693a	0.11689992
71	0x3e0d6636	0.13808522
72	0x3e5e7ef4	0.21728116
73	0x3c65abb9	0.014017993
74	0x3c847b75	0.01617215
75	0x3d7facaf	0.062420543
76	0x3d173ca3	0.036923062
77	0x3d7877db	0.060661178
78	0x3e1f327c	0.15546602
79	0x3df2c569	0.11854059
80	0x3d8842cd	0.06653366
81	0x3e1e4226	0.15454921
82	0x3d14be77	0.036314454
83	0x3dcb4dfe	0.09926985
84	0x3db91d50	0.09038794
85	0x3e00f316	0.1259273
86	0x3c2f0812	0.010683076
87	0x3de7f981	0.11326886
88	0x3d7bebca	0.061504163
89	0x3d4963bf	0.04916739
90	0x3d3c071e	0.045905225
91	0x3da8d653	0.08244004
92	0x3e1e3e61	0.15453483
93	0x3d8a10d0	0.06741488
94	0x3d816c45	0.06319479
95	0x3d603b2d	0.054743934
96	0x3d12ff55	0.035888035
97	0x3cd3d684	0.025859125
98	0x3dc3a92a	0.0955375
99	0x3cec7887	0.028866066
100	0x3dc572bb	0.09641024
101	0x3dbca25f	0.09210657
102	0x3da1594f	0.078783624
103	0x3d5e0b04	0.054209724
104	0x3dcf3288	0.1011706
105	0x3d8fb85b	0.07017585
106	0x3daa0a57	0.083027534
107	0x3d417ddf	0.04723918
108	0x3dbef1bf	0.09323453
109	0x3d005afc	0.03133677
110	0x3e11b4f6	0.14229187
111	0x3dd12e09	0.10213859
112	0x3da6fd9c	0.08153841
113	0x3c96c108	0.018402591
114	0x3dc8463c	0.09779021
115	0x3dd18de3	0.10232141
116	0x3d537f91	0.05163533
117	0x3d897015	0.06710831
118	0x3dc996db	0.098432265
119	0x3d4f479a	0.050605394
120	0x3da20a95	0.079121746
121	0x3e33a58b	0.17543618
122	0x3e161ce6	0.14659461
123	0x3c0f3a1e	0.008741884
124	0x3dd5c5e2	0.10438134
125	0x3e0ab0b9	0.13543977
126	0x3d73711e	0.05943405
127	0x3d76a13a	0.06021235
128	0x3e0035cb	0.1252052
129	0x3c4913c9	0.012272784
130	0x3e7575f0	0.23970771
131	0x3e2eb4e1	0.17061187
132	0x3dc5ae88	0.0965243
133	0x3d945298	0.07242316
134	0x3d1c210f	0.038117465
135	0x3cbe515f	0.02323216
136	0x3d8f81ea	0.07007201
137	0x3da95f6b	0.08270153
138	0x3e2925d7	0.16518341
139	0x3da21984	0.07915023
140	0x3d8c3221	0.06845499
141	0x3dac2bd5	0.08406798
142	0x3e483d60	0.19554663
143	0x3df650bf	0.1202712
144	0x3daee46f	0.08539664
145	0x3e03de0b	0.12877671
146	0x3cd272f5	0.025689581
147	0x3dcb7e56	0.09936206
148	0x3da904f1	0.082528956
149	0x3e413ee2	0.18871644
150	0x3d8efe66	0.069821164
151	0x3dc7e3d5	0.097602524
152	0x3e0c89e0	0.1372447
153	0x3d4d5544	0.050130144
154	0x3e07bb70	0.13255095
155	0x3e0e03e3	0.1386867
156	0x3e0d9cea	0.13829389
157	0x3dc1321c	0.09433386
158	0x3c3748a0	0.011186749
159	0x3db5bf04	0.08874324
160	0x3e12e2e3	0.14344363
161	0x3dd57b47	0.10423904
162	0x3d6039e3	0.054742705
163	0x3d8d36df	0.068952315
164	0x3d987f50	0.07446158
165	0x3d90c49e	0.07068752
166	0x3e12277e	0.14272878
167	0x3dab4a14	0.08363739
168	0x3dacd6a8	0.0843938
169	0x3be4bea4	0.006980734
170	0x3d8ea419	0.06964893
171	0x3d76fc60	0.060299277
172	0x3dc6f4e6	0.097146794
173	0x3cdce28a	0.026963491
174	0x3d61d711	0.055136744
175	0x3da8066c	0.0820435
176	0x3de61b69	0.11235697
177	0x3db348e7	0.087541394
178	0x3d737039	0.059433196
179	0x3e3ba1ea	0.18323484
180	0x3da21129	0.07913429
181	0x3ce604f2	0.02807853
182	0x3cb529a4	0.022114582
183	0x3de5c444	0.11219075
184	0x3e111d2a	0.14171281
185	0x3da40cd2	0.08010258
186	0x3de023f9	0.10944361
187	0x3d17144d	0.036884595
188	0x3e03e976	0.12882027
189	0x3e54d62b	0.20784824
190	0x3d196fdb	0.03746019
191	0x3d68d9b6	0.05684825
192	0x3d916494	0.07099262
193	0x3e357f9a	0.17724457
194	0x3e18b542	0.14912894
195	0x3d3bf4dc	0.045887813
196	0x3dac6f02	0.084196106
197	0x3d528729	0.05139843
198	0x3d1cc6d5	0.03827556
199	0x3e0afbc1	0.13572599

layers.4.weight f4 [100, 200]
0	0xbc16885e	-0.009187786
1	0x3d9567e6	0.07295208
2	0xbc96bb56	-0.018399876
3	0x3d153a53	0.036432575
4	0x3dc9b96a	0.09849818
5	0x3d74a32c	0.059725925
6	0x39c00e7f	0.00036631894
7	0xbc3b35f6	-0.0114264395
8	0x3b9f2808	0.004857067
9	0xbc5f07e8	-0.013612725
10	0x3ca46161	0.020065965
11	0x3d25b1c9	0.040452752
12	0xbd583f08	-0.052794486
13	0x3da17b1f	0.078848116
14	0xbd543369	-0.05180684
15	0xbd28a2e0	-0.041170955
16	0xbdb6f948	-0.089342654
17	0xbd564d52	-0.052319832
18	0xbd58c6c1	-0.05292392
19	0x3b113b08	0.002216043
20	0x3cb1e9e9	0.021717982
21	0x3cb7449d	0.022371585
22	0x3cb6ab54	0.022298492
23	0xbc8d54e3	-0.017252391
24	0x3d75409a	0.059876062
25	0x3c104d7c	0.008807536
26	0xba7738c4	-0.0009430761
27	0x3ce89199	0.028389739
28	0x3d0fee10	0.035139143
29	0x3cd61106	0.026131164
30	0xbdadf4a5	-0.08493928
31	0xbd53efcd	-0.051742364
32	0x3c6e21f6	0.014534464
33	0x3d0946f3	0.033514928
34	0xbc57d20a	-0.013172636
35	0x3c495971	0.012289391
36	0xbdc60fe6	-0.09671001
37	0x3d821302	0.06351282
38	0xbd30797b	-0.043084603
39	0x3ced53ab	0.02897056
40	0x3d7c65f9	0.061620686
41	0x3d0ebcb2	0.034847923
42	0x3d12caee	0.03583806
43	0xbc350ba4	-0.011050139
44	0xb9e9cd0e	-0.00044594
45	0x3c1ed821	0.009695084
46	0x3c2c453f	0.010514556
47	0x3ca5ce06	0.020239841
48	0x3d9478dd	0.07249615
49	0xbad644d1	-0.0016347413
50	0xbac19241	-0.0014768319
51	0x3d910def	0.07082736
52	0x3d160f8c	0.03663592
53	0x3d31c570	0.04340118
54	0x3d7d1334	0.06178589
55	0x3d1b353d	0.03789257
56	0xbdba2562	-0.090891615
57	0x3d75cd74	0.06001039
58	0xba65d4de	-0.00087673764
59	0xbc89afd6	-0.016807478
60	0xbdebb765	-0.11509589
61	0x3d8c578b	0.06852635
62	0x3b9a3717	0.0047062743
63	0x3caf422c	0.021393858
64	0x3d4e4bbe	0.050365202
65	0x3bc39c49	0.0059695584
66	0x3d4d0d78	0.050061673
67	0x3d854e76	0.06509106
68	0xbbe8cf02	-0.0071047554
69	0x3be07530	0.0068499073
70	0x3d08ff1f	0.033446427
71	0xbd0e549e	-0.034748666
72	0xbd8a6aba	-0.06758638
73	0x3a16eb89	0.00057571434
74	0x3d4cfd7f	0.05004644
75	0xbd642168	-0.05569592
76	0x3c710611	0.014710919
77	0x3d453c19	0.048153017
78	0xbca53f61	-0.020171823
79	0x3d598725	0.0531074
80	0xbccaf707	-0.024775995
81	0x3d27ee31	0.04099864
82	0x3b4edbab	0.0031564038
83	0x3cb4bea6	0.022063565
84	0xbcd73d71	-0.026274415
85	0xbd01a022	-0.031646855
86	0x3da81c40	0.08208513
87	0xbd9bd185	-0.07608322
88	0x3d789905	0.060692806
89	0xbdb1a639	-0.086742826
90	0x3cc53c9c	0.024076752
91	0xbc9610df	-0.018318592
92	0xbdd9918f	-0.10623466
93	0xbd5c9018	-0.053848356
94	0xbd9dba69	-0.077015705
95	0x3d75563a	0.059896685
96	0x3d03858e	0.03210979
97	0x3cfe4498	0.031038567
98	0xbd841c9b	-0.064507686
99	0xbd858e07	-0.0652123
100	0x3d31f85a	0.043449737
101	0xb98e1195	-0.0002709745
102	0x3ae49e05	0.0017442113
103	0xb831f5c8	-4.242899e-05
104	0x3d05f09d	0.03270017
105	0xbda581da	-0.08081408
106	0x3c214e3b	0.009845312
107	0xbd5b2f7e	-0.05351209
108	0xbb04f67b	-0.0020288515
109	0xbd7219c0	-0.05910659
110	0xbd276a10	-0.040872633
111	0x3d68dfa1	0.056853894
112	0xbd8bc282	-0.06824209
113	0x3c3134a4	0.010815773
114	0x3d28f324	0.041247502
115	0x3d865957	0.06560009
116	0x3daea9cb	0.08528479
117	0xbce343bd	-0.027742261
118	0x3cf72b03	0.030171877
119	0xbc6e3dd2	-0.014541106
120	0xbcc142a2	-0.023591343
121	0xbc46f7d3	-0.012144047
122	0x3cc645a2	0.024203125
123	0xbaaa0ba6	-0.0012973442
124	0x3d6244e8	0.055241495
125	0x3cb64dbf	0.02225387
126	0x3d6661a5	0.056245465
127	0xbcdf7dee	-0.027281728
128	0xbdad066f	-0.08448493
129	0xbb339901	-0.002740443
130	0x3d950c1b	0.072776996
131	0x3d0597cb	0.032615464
132	0xbcc340ad	-0.02383455
133	0xbd040991	-0.032235686
134	0xbdad0110	-0.08447468
135	0xbc040c08	-0.008059509
136	0xbc978e94	-0.018500604
137	0xbd2dd9e1	-0.042444114
138	0xbda183d9	-0.07886476
139	0x3d80a5d1	0.06281627
140	0x3d2e1556	0.042500816
141	0xbd24b59f	-0.04021227
142	0xbca77521	-0.020441594
143	0x3ce58913	0.028019464
144	0x3dc4a243	0.096012615
145	0xbc97c444	-0.018526204
146	0x3dbee75a	0.093214706
147	0xbbc2a8e5	-0.005940544
148	0x3d35e8de	0.044411533
149	0xbc6b53b4	-0.014363218
150	0xbc5ededd	-0.013602939
151	0x3d5b6b2b	0.053569
152	0x3c6d7c47	0.014494962
153	0xbcf44e7a	-0.029822577
154	0x3d10621e	0.03524982
155	0x3bb2feea	0.005462517
156	0x3ce5b428	0.028040007
157	0xbc28cb97	-0.010302446
158	0x3d2bc806	0.041938804
159	0x3d98fd8e	0.07470237
160	0xbd12aef3	-0.035811376
161	0xbdc697f5	-0.09696952
162	0x3d973e8e	0.07384978
163	0xbce9a95b	-0.028523138
164	0xbd9522cb	-0.07282027
165	0x3c80846e	0.015688147
166	0x3d0a105e	0.033707015
167	0x3c33ed43	0.010981861
168	0xbcf73d53	-0.030180609
169	0x3d3f94c1	0.046772722
170	0x3ca7a6e7	0.020465327
171	0x3da0afeb	0.07846054
172	0xbb338e58	-0.0027398076
173	0xbbddaffa	-0.006765363
174	0x3d207405	0.039173145
175	0xbda162d5	-0.07880179
176	0x3d09fa09	0.033685718
177	0x3b993833	0.004675889
178	0xbc8f2ca6	-0.017477345
179	0x3d329c9a	0.04360638
180	0xbd2b97c2	-0.041892774
181	0xbd575419	-0.052570436
182	0x397aa45a	0.00023903084
183	0xbda9b1da	-0.082858756
184	0xbd0c4eaf	-0.034254726
185	0x3bf15bbf	0.0073656733
186	0x3c17fa94	0.009276051
187	0xbd913674	-0.07090464
188	0xbc87805b	-0.016540697
189	0x3cd64662	0.026156608
190	0x3a937f61	0.0011253172
191	0x3c7e1f43	0.015510383
192	0x3cbabf4f	0.022796301
193	0x3d14f8dd	0.036370147
194	0x3d80b2d4	0.06284109
195	0xbd94e533	-0.07270279
196	0x3c0f744a	0.008755753
197	0xbc05bf94	-0.008163352
198	0xbdbc0dd7	-0.09182327
199	0x3d37f601	0.044912342
200	0xbc2f6601	-0.010705472
201	0x3d12e5f9	0.03586385
202	0x3d1427fc	0.036170945
203	0x3cd927eb	0.026508292
204	0x3c6687bb	0.014070447
205	0x3cd8b90d	0.026455427
206	0x3d52bba1	0.051448468
207	0x3d1455e2	0.036214717
208	0x3d125370	0.035724103
209	0x3c994ee4	0.018714376
210	0x3d9b9332	0.07596435
211	0xbc9199d4	-0.017773546
212	0x3d6f3a3f	0.058405157
213	0x3ba7fb19	0.0051263687
214	0x3d493f37	0.049132552
215	0xbc789f96	-0.015174767
216	0xbd82d38d	-0.06388006
217	0x3ca2d696	0.019877713
218	0x3cbdb7a0	0.023158848
219	0xbd55e169	-0.05221692
220	0xbd00a837	-0.031410422
221	0x3d5b9cec	0.05361645
222	0x3d843f1c	0.0645735
223	0xbcb25fcf	-0.0217742
224	0xbcc9a2f9	-0.024613844
225	0x3d80f5ec	0.06296906
226	0xbd6aff5f	-0.057372447
227	0x3d63ba59	0.055597637
228	0xbd6558c4	-0.055992857
229	0x3ca7a275	0.020463208
230	0xbd659d59	-0.05605826
231	0xbd23b584	-0.03996803
232	0x3d1d41f2	0.03839297
233	0xbc05e092	-0.0081712175
234	0xbda6deba	-0.081479505
235	0x3cacbe5e	0.021086868
236	0xbce4bf49	-0.027923243
237	0x3d586cfd	0.052838314
238	0x3ccfd473	0.025369858
239	0xbcc6221e	-0.02418619
240	0x3d91f012	0.07125868
241	0x3d208109	0.039185558
242	0x3c88e20d	0.016709352
243	0xbc6ecc9b	-0.014575149
244	0xbc46c51f	-0.012131958
245	0x3d206bb2	0.039165206
246	0x3d922e83	0.07137778
247	0x398e17b4	0.0002710201
248	0x3d27ab03	0.040934574
249	0x3d2bf39a	0.041980363
250	0xbbf50bff	-0.0074782367
251	0x3d8c1ebb	0.06841799
252	0xbd04df50	-0.03243953
253	0xbd216987	-0.03940728
254	0x3d7cccc7	0.06171873
255	0xbcf57ce2	-0.029966775

layers.4.bias f4 [100]
0	0xbd770004	-0.06030275
1	0x3cad42aa	0.021149952
2	0xbc103259	-0.008801066
3	0xbc854287	-0.016267074
4	0xbc2e153d	-0.010625181
5	0x3d9c6953	0.076372765
6	0xbdf05c99	-0.117364116
7	0x3d88dcfc	0.066827744
8	0xbddfb4ea	-0.109231785
9	0x3d063d10	0.032773077
10	0x3c22a051	0.009925918
11	0xbd080c9f	-0.03321516
12	0xbafa0248	-0.0019074166
13	0x3cb8cb75	0.022557953
14	0x3bac9c7f	0.005267679
15	0xbe010f1a	-0.12603417
16	0x3d8a9b57	0.0676791
17	0x3d77d7fc	0.060508713
18	0xbd0c99d1	-0.03432638
19	0xbab711c3	-0.0013967085
20	0xbdfe8d89	-0.124293394
21	0xbcefa6a8	-0.029254273
22	0xbd5829b8	-0.05277416
23	0x3db61514	0.08890739
24	0x3c0ea211	0.008705632
25	0xbdc945e4	-0.09827784
26	0x3df5ebbb	0.12007853
27	0x3c145e0a	0.009055624
28	0x3cc339b9	0.023831235
29	0x3da5965c	0.080853194
30	0x3c6757f7	0.014120094
31	0xbd156a0f	-0.0364781
32	0x3d98b145	0.074556865
33	0x3cf18f4d	0.029487276
34	0xbc676a17	-0.014124415
35	0xbd8cc733	-0.06873932
36	0xbce25506	-0.027628433
37	0xbdc81114	-0.097688824
38	0x3b89a4f6	0.004200573
39	0xbd17e68b	-0.037085097
40	0x3c2f2c95	0.0106917815
41	0xbc4df063	-0.01256952
42	0x3dc15e03	0.094417594
43	0x3cf7e188	0.030258909
44	0x3d223256	0.039598785
45	0x3d118eb2	0.035536475
46	0xbdf0d153	-0.117586754
47	0x3c9e6277	0.019334061
48	0x3db03af1	0.08604992
49	0xbdf606c5	-0.1201301
50	0xbcffa2d5	-0.031205574
51	0xbd81abf6	-0.06331627
52	0xbdf74b31	-0.120748885
53	0xbc930b20	-0.01794964
54	0xbc418ae9	-0.011812904
55	0xbde57184	-0.11203292
56	0x39cce07a	0.0003907716
57	0x3d3727eb	0.044715803
58	0xbe02d227	-0.1277548
59	0xbc89c24d	-0.016816283
60	0x3d81ef8a	0.063445166
61	0x3e074211	0.13208796
62	0x3cce05a5	0.025149176
63	0x3b2a5a9b	0.0025993946
64	0xbd48c4ce	-0.049015813
65	0x3bb34d1a	0.0054718377
66	0xbd952a24	-0.07283428
67	0xbdb2b6db	-0.08726283
68	0x3d9a29b1	0.07527483
69	0x3d5eaebf	0.05436587
70	0x3d11742b	0.035511177
71	0x3d634791	0.055488173
72	0x3daa21bf	0.08307218
73	0x3df3c003	0.11901858
74	0x3da68b05	0.081319846
75	0x3c3b6d69	0.01143966
76	0xbdbf87ab	-0.093520485
77	0x3d1595ef	0.03651994
78	0x3dc146f1	0.09437359
79	0xbdc6a5ea	-0.09699614
80	0x3c32689d	0.0108892
81	0x3d8f615b	0.07000991
82	0x3c55eac6	0.013056463
83	0xbdf5efe4	-0.12008646
84	0x3d960f81	0.07327176
85	0x3dd90a1e	0.10597633
86	0x3aaa39c4	0.0012987186
87	0x3e00b92c	0.12570637
88	0xbdd35336	-0.103186056
89	0xbc5444ab	-0.012955825
90	0x3d8846ee	0.06654154
91	0x3caba629	0.020953255
92	0x3ddbe8a0	0.10737729
93	0xba0f7c5c	-0.0005473548
94	0x3d8acff5	0.06777946
95	0x3d4e9ea9	0.05044428
96	0xbd967a40	-0.07347536
97	0x3d6c8e3d	0.057752836
98	0x3c93d0f3	0.01804397
99	0x3c208d6c	0.009799343
