Pytorch_Bootcamp/TaxiFareClssModel.pt (torch, 113309 bytes, 21 tensors)

embeds.0.weight f4 [24, 12]
000000 fe 17 03 3f e7 ac 77 3d 59 2b bf be 09 34 30 3f
       0.51208484 0.060467627 -0.3733776 0.688294
000010 23 fb 08 3f 9f 88 81 be 5d 2e a8 3f a4 9c 83 3d
       0.53508204 -0.25299546 1.3139149 0.06426361
000020 40 12 95 bf dc da 98 3f 22 39 bf 3e 38 46 bb be
       -1.1646194 1.194179 0.37348276 -0.3657701
000030 f9 98 a1 3d e1 69 b6 bf 27 ab 55 3e 43 fa eb 3e
       0.07890505 -1.4251062 0.2086607 0.46089372
000040 0e 09 b0 be bf e1 b4 bf 85 12 93 3f ba 5f 19 bf
       -0.34381908 -1.4131392 1.1490027 -0.5991169
000050 0c be 20 3e 93 af 9f 3f 38 72 ef be db 1a e5 3e
       0.15697497 1.2475456 -0.4676683 0.44747052
000060 f5 cc fa 3e 68 61 a1 bf fa 6d a3 be 14 2d a4 3e
       0.48984495 -1.2607851 -0.31919843 0.32065642
000070 fe 50 49 be 74 d8 46 bf f0 9a bb bf 15 22 8b bf
       -0.19659802 -0.7767403 -1.4656658 -1.0869776
000080 af a8 84 bf 5e 0e a4 3e 60 fa 83 bf 8e 8d 49 3f
       -1.0363978 0.3204221 -1.0310783 0.7873162
000090 48 a0 a7 bf f8 45 ac be ce 08 9a bf b3 a6 c0 3f
       -1.3095789 -0.33647132 -1.2033937 1.5050873
0000a0 12 42 98 be b5 1b cc 3e 39 c8 fd 3e d4 22 60 3f
       -0.29737908 0.3986489 0.4956682 0.87553144
0000b0 77 7c 19 3f 5a 20 03 3e 12 09 82 3e 9d 5d 9f be
       0.59955543 0.1280531 0.25397545 -0.3112611
0000c0 df ea 95 bf 4f 0e 89 bf 87 68 c1 3f b6 af b8 bf
       -1.1712302 -1.0707492 1.5110024 -1.4428623
0000d0 ec de ad be 09 a4 d8 bf 81 aa b0 be 0f 81 a9 3f
       -0.33959138 -1.692506 -0.34505084 1.324251
0000e0 71 43 0d 3e 2c dc 45 bf d8 af 6c 3f 0d 41 12 3f
       0.13795258 -0.7728908 0.92455816 0.5713051
0000f0 54 54 88 3e e0 26 c4 be 65 64 36 3f 76 cd 2e c0
       0.26626837 -0.3831091 0.7124694 -2.7312903
000100 87 83 04 be 2b 6b 1b c0 d8 16 ed bf 15 5d 9b 3c
       -0.12940799 -2.428416 -1.8522596 0.018965283
000110 8b 70 9b bf 6d 6d 5c 3f ab 7a 78 3e a7 fe 6f 3f
       -1.214372 0.8610447 0.24265544 0.93747944
000120 82 91 9b 3e 9c 28 9e 3f 28 2d 30 3f 69 4b 2b bf
       0.3038445 1.2356143 0.688189 -0.6691194
000130 98 29 2d bf 28 70 1e bf 63 35 2f 3f 1b d5 2c be
       -0.6764159 -0.61889887 0.68440837 -0.16878168
000140 1f df d5 3f 6a 87 b4 bf 21 3b 22 be 52 a1 a8 3f
       1.6708716 -1.4103825 -0.15842868 1.3174231
000150 0f 17 ef 3f 83 c7 88 be 77 98 de 3c fa 67 9d bf
       1.8678912 -0.26714715 0.02717231 -1.2297356
000160 82 0c 45 bf db 41 d0 bb 32 27 3d 3f ef c2 af bf
       -0.7697221 -0.006355507 0.7388793 -1.3731364
000170 41 28 32 bf f8 ea 87 bf 75 40 ff be 6b c1 96 bf
       -0.6959267 -1.0618582 -0.49853864 -1.1777776
000180 6d ae 48 bf c7 5e 8a bf 99 0a 32 40 29 21 bd 3f
       -0.7839115 -1.0810174 2.7818968 1.4775745
000190 93 c2 14 3e 20 26 52 bf 40 5c 12 bf e6 7a 31 3e
       0.14527349 -0.82089424 -0.5717201 0.17332038
0001a0 f0 1e 1a 3f 30 23 b4 3f 9e 1d 13 3f c5 bd fe be
       0.60203457 1.4073238 0.5746707 -0.49754158
0001b0 9f 63 97 3f e1 7c 21 bc 0d b3 a1 3f d2 cf ee bd
       1.1827277 -0.009856434 1.2632767 -0.11660732
0001c0 1c 26 b2 bf 49 7d 37 3f 95 46 7f be 2f 96 90 bf
       -1.391788 0.71675545 -0.24929269 -1.1295832
0001d0 43 96 81 3f 75 1f d1 3f c2 f1 b1 bf 63 77 ad 3e
       1.0123981 1.6337725 -1.3901904 0.33880147
0001e0 8b 72 f8 be 77 08 d7 3f 64 8d 12 bf 06 75 af be
       -0.4852489 1.6799458 -0.57246995 -0.3426897
0001f0 8e 9d 39 3f 4f 87 81 bf 71 97 85 bf 51 05 4a 3f
       0.72506034 -1.0119418 -1.0436841 0.7891436
000200 73 37 e8 3e af 97 0b bf b2 55 ef bf ee e3 0d bf
       0.45354804 -0.54528326 -1.8698027 -0.5542592
000210 62 c2 d7 3e 7a d9 77 3f 36 f6 71 bf a3 56 fa 3f
       0.4214049 0.9681622 -0.94516313 1.955769
000220 95 6b 7d 3f 60 5d 86 3f aa 8b 88 3f 10 62 8b bf
       0.9899228 1.0497246 1.0667622 -1.0889301
000230 9a 63 b7 bf 9d 3e 08 c0 e1 54 e3 bc 3f a5 29 bf
       -1.4327271 -2.1288216 -0.027750434 -0.6626777
000240 a6 b0 cc bf 84 22 9e be 5b e1 77 3f 0c 79 66 3f
       -1.5991409 -0.30885708 0.9682824 0.9002845
000250 e9 a9 02 3e 59 2b 99 3f 59 b0 8c bf 53 d5 1a 40
       0.12760128 1.1966354 -1.0991317 2.4192703
000260 04 6e 8c be ca 2f 05 3f d9 fd bb 3f 74 04 c2 bf
       -0.27427685 0.52026045 1.4686843 -1.5157609
000270 92 b9 f1 3f b2 91 72 3e 40 13 68 bf 31 05 89 bf
       1.8884757 0.23688391 -0.90654373 -1.0704709
000280 15 13 7e bf d9 21 7d be 79 5a a1 3e 3b 96 0c 3f
       -0.99247867 -0.24719943 0.31514338 0.54916734
000290 5b 33 d7 bd 13 6f 1b 3e 73 1f e5 bf 46 58 d9 bf
       -0.10507842 0.1517909 -1.7900223 -1.6980064
0002a0 b7 85 8e 3e 65 28 c8 bf 8e 7f 96 3f ce 5c 8d 3f
       0.2783639 -1.5637327 1.1757677 1.1043947
0002b0 89 05 ef bf a0 6d 9f bc 5f 29 c3 3f e5 e4 b6 be
       -1.8673564 -0.019461453 1.5247 -0.35721508
0002c0 25 69 9d bf 97 dd 0d 3f 3c 56 9d 3f 49 8c 67 bf
       -1.2297713 0.55416244 1.2291942 -0.90448433
0002d0 3f 4d 3b 3b 35 59 a3 be 4e 29 39 3c 8f d2 43 3e
       0.0028579978 -0.31903997 0.011301352 0.1912329
0002e0 37 96 7e 3f 18 25 97 3f 1c cb 65 be a8 15 02 c0
       0.9944796 1.1808195 -0.22440761 -2.0325718
0002f0 93 5a a9 3e 80 f5 71 bf c2 a0 dc bf 28 c4 78 bf
       0.33076915 -0.9451523 -1.7236559 -0.9717431
000300 51 93 c1 bf 32 30 c0 bf 5a 89 22 bf 56 a0 c7 bf
       -1.5123082 -1.5014708 -0.6349083 -1.5595806
000310 42 95 90 bf 11 82 5b 3d 10 68 a8 3f 58 5b f3 3f
       -1.129555 0.053590838 1.3156757 1.9012251
000320 21 eb 5a bd 11 a3 aa 3e 4f 57 ed be 57 1c f0 be
       -0.053446893 0.33327535 -0.46355674 -0.46896622
000330 c0 e3 c1 be 64 5d 0f c0 31 ac 8d bf 3e 99 ad bf
       -0.37869072 -2.240075 -1.1068174 -1.3562391
000340 7b de 3c 3e de 05 06 3f 2b 21 db bf e9 a7 77 be
       0.18444245 0.523527 -1.7119497 -0.24185146
000350 be 74 5e bf 4f 08 0e bf 9d 12 e1 be 12 f2 b4 3f
       -0.86896884 -0.5548143 -0.43959513 1.4136374
000360 03 c6 e8 bf ce 1a 4d bf 5b c9 0d bf fc 5d 8c bf
       -1.8185428 -0.80119026 -0.5538537 -1.0966182
000370 ba fd 6e 3f 70 3a e2 be f7 87 0b 3f 94 8d f0 bd
       0.93355906 -0.4418521 0.5450434 -0.11745754
000380 21 30 92 bf cf 0f cd 3d 1b 66 9f bf 8f 20 8d bf
       -1.1420938 0.10012781 -1.2453035 -1.1025561
000390 ea 16 d2 bf f2 ad ec 3e 48 82 87 bf 25 04 c0 be
       -1.6413243 0.4622646 -1.0586634 -0.37503162
0003a0 f7 fc f6 3e 24 72 83 3e 9b 72 07 40 0d e7 ae be
       0.48239872 0.2567302 2.11637 -0.34160653
0003b0 4f 7d bf 3f 43 46 d9 be 51 b2 84 3d 86 58 b3 3f
       1.4960116 -0.42436418 0.06479324 1.401139
0003c0 a8 b3 fc bf ff 19 1c bf 75 62 eb 3d 0d bf 32 bf
       -1.9742327 -0.60977167 0.114933886 -0.6982277
0003d0 28 eb c1 be 1d 9e 5b 3d 21 36 37 bf e4 fa 2b c0
       -0.37874722 0.053617585 -0.7156697 -2.6871881
0003e0 e7 a8 1d 3f 08 5f 2b 3f e5 a7 7d bf ed 85 91 3f
       0.6158585 0.6694188 -0.9908431 1.1368996
0003f0 a9 18 9b bf c9 c5 a4 bd 6a df 94 bf 52 4d ab be
       -1.2116901 -0.08045537 -1.163068 -0.33457428

embeds.1.weight f4 [2, 1]
000000 a1 94 28 bd f5 60 9f 3e
       -0.04115737 0.3112866

embeds.2.weight f4 [7, 4]
000000 1c 01 ba 3e 7b c7 b2 3e 56 fa 5e 3f fa c6 e8 bf
       0.3632897 0.34917817 0.8710073 -1.8185723
000010 51 eb b6 3e bc 40 30 bf 20 da 90 3f 15 a6 b4 3e
       0.35726407 -0.68848777 1.1316566 0.3528296
000020 a4 14 d8 3f aa 18 c0 bf 64 42 c7 bf 12 e7 0f 3f
       1.6881299 -1.5007527 -1.5567136 0.5621196
000030 7f f2 32 3f bb 13 42 be aa 14 07 c0 4d c9 e0 bf
       0.6990127 -0.18952839 -2.1106362 -1.7561432
000040 e6 9d 36 bf 6f 42 10 bf be 68 dc 3f 7b 1b 3b 3f
       -0.71334684 -0.5635137 1.7219465 0.73088807
000050 10 cb db 3f 7d d8 32 bf 6b be b1 bf 25 e2 e9 be
       1.7171345 -0.69861585 -1.3886236 -0.45680347
000060 cd 82 6e 3f 3d a8 78 bf b9 3b 35 bf 73 9b 8f 3e
       0.93168336 -0.9713171 -0.70794255 0.28048286

bn_cont.weight f4 [6]
000000 18 5b 6d 3f 06 ab 86 3f 5f d9 78 3f 5f a4 8c 3f
       0.92717123 1.0520942 0.9720668 1.0987662
000010 7b b3 68 3f 7f b4 8a 3f
       0.90898865 1.0836333

bn_cont.bias f4 [6]
000000 06 c3 7f bd c7 9d 1e 3b 64 84 0f 3d 87 b1 bc 3c
       -0.06244185 0.002420293 0.035038367 0.02303387
000010 c3 d7 a4 3c 0f 44 a8 bd
       0.020122414 -0.08216106

bn_cont.running_mean f4 [6]
000000 76 01 23 42 ea f3 93 c2 f1 01 23 42 ed f2 93 c2
       40.751427 -73.976395 40.751896 -73.974464
000010 7d 95 ac 3f cc 00 54 40
       1.348312 3.3125486

bn_cont.running_var f4 [6]
000000 5c f8 2d 3a ad df 84 3a 93 57 70 3a 0c 56 8a 3a
       0.00066364347 0.0010137461 0.0009168323 0.0010554208
000010 19 a5 13 3f ae 3e 31 41
       0.57673794 11.077803

layers.0.weight f4 [200, 23]
000000 3c ea 3f bc 19 76 c6 3c e3 ee 53 3c d2 e1 e1 bc
       -0.011713561 0.024226235 0.012935373 -0.0275735
000010 bb 73 52 3d 3b d7 db 3b 79 51 3b 3c b7 7b f0 bd
       0.0513799 0.006709007 0.011432999 -0.11742347
000020 5e 15 33 3d 0f 30 ad bd b7 96 d4 bd 41 4c d9 3c
       0.04372155 -0.08456432 -0.10380309 0.026525619
000030 ce 79 0b 3e f6 80 96 bd 8e 0a c9 bc 5a 9e 8c 3d
       0.13620684 -0.07348816 -0.024541166 0.06866141
000040 54 60 a2 bd 4d 1d 62 3d 56 04 1f bd 9a ba 8e 3c
       -0.079285294 0.055203725 -0.038822494 0.017422963
000050 c4 48 c2 bd c1 78 d6 3c 62 8f 8c be d7 b7 23 bd
       -0.09486535 0.026180627 -0.27453142 -0.039970245
000060 87 70 65 3d 84 e8 e4 bd 39 09 67 3e 62 3d 66 3d
       0.056015518 -0.11177161 0.22562112 0.056210883
000070 02 f3 da bb 58 8b 93 3d 74 b4 9a 3d df ea 38 3d
       -0.006681801 0.07204312 0.0755395 0.045145866
000080 4d 02 0d 3a 35 f6 ea bd 00 ad 46 bd 1f 3e 0c be
       0.0005379066 -0.114727415 -0.04850483 -0.13695572
000090 e3 d5 e6 3d 1c b2 e3 bd 1e bc 09 3e 06 3a 01 3d
       0.112712644 -0.11117956 0.13450667 0.031549476
0000a0 d3 05 ab bd da 22 79 3d 37 67 87 3d 28 63 09 bd
       -0.0835072 0.060824253 0.066114835 -0.03354183
0000b0 bb 5b 81 3c 2e 0e 8f 3e 38 f4 1c be 4a 7d 86 bc
       0.01579081 0.27940506 -0.15327537 -0.016417164
0000c0 ee f3 8d bc e8 9b fa bc f2 87 8c bd 1c 88 f0 3c
       -0.017328229 -0.03059192 -0.06861867 0.029361777
0000d0 18 4e 00 bd 98 35 99 3d b1 15 3f 3d 94 09 41 bd
       -0.031324476 0.07480925 0.046651546 -0.047128275
0000e0 37 08 58 bd 6a 52 0a be 20 e9 98 3d 21 28 00 3e
       -0.05274221 -0.13508001 0.0746634 0.12515308
0000f0 49 30 4e be 1d e4 36 3d 0a a9 36 3e 57 6e 9c bd
       -0.20135607 0.04465114 0.17837921 -0.07638233
000100 8a 8c d9 bd 15 e4 14 3d b5 2c 8c 3d 81 3b 3a 3d
       -0.10622509 0.03635033 0.06844465 0.045466904
000110 f0 0c 2c 3e 27 fe 35 be 32 1c 9d 3d 8a c8 63 bc
       0.1680181 -0.17772733 0.076713935 -0.013902793
000120 43 a5 3a 3e a5 ff 85 bd 11 1b 6d be 8a 29 20 be
       0.18227105 -0.06542901 -0.23154856 -0.15640846
000130 55 0e af 3c 19 44 d1 bd 13 9c 09 be 4e fc 89 3d
       0.021369139 -0.10218067 -0.13438444 0.067375764
000140 f6 c1 16 3e 95 ad ff bc fd ea a5 bd 87 d9 21 3e
       0.14722428 -0.0312107 -0.08101461 0.15805636
000150 59 35 a9 bd d1 62 41 3e 35 d8 0c 3e ae b7 bb bd
       -0.082621284 0.18885352 0.13754351 -0.091658935
000160 9e 76 26 be 80 49 10 3b f3 dd 29 3e 1a 0b 22 be
       -0.16256186 0.0022016466 0.16588573 -0.15824547
000170 78 d0 f3 3d b4 1f 10 3d 1f 8a 43 3d b3 d9 00 bd
       0.11904997 0.035186484 0.047739144 -0.031457614
000180 87 9b b3 bd f0 ed 7c bd c9 58 91 bd 29 da 0a 3e
       -0.08769899 -0.061750352 -0.070970125 0.13559784
000190 e1 53 83 3d 17 0a c6 3d 80 66 fe bc e3 e9 76 3d
       0.06412483 0.09669893 -0.031054735 0.060281646
0001a0 a9 5f 8c bd 8d b5 2c 3d 2e 3c d4 bd 07 02 bc 3d
       -0.06854183 0.042165328 -0.10363041 0.09180074
0001b0 f3 47 bb bd d2 35 1b 3e f7 5a b8 3b 69 b7 04 be
       -0.091445826 0.1515725 0.005626078 -0.1296059
0001c0 79 31 08 bd 86 9e 84 3d c3 0b 51 3e 70 f3 fc 3b
       -0.033250306 0.064755484 0.20414643 0.0077194497
0001d0 44 e0 8e bd 21 6f e9 3d 53 23 85 bd 62 68 ab 3d
       -0.06976369 0.11398149 -0.06500878 0.08369519
0001e0 b0 f7 d3 bc de 4a d3 3d c6 e0 22 bc 99 29 8a 3d
       -0.025874943 0.10317014 -0.0099412855 0.067462154
0001f0 83 3a e9 bd 49 5b 79 bd 6e 58 e3 bd 85 6a da bd
       -0.11388113 -0.060878072 -0.11100851 -0.10664848
000200 51 5f 56 3a af 04 0c 3a 91 3a 0f bd 2e 82 cf 3d
       0.00081776554 0.0005341274 -0.034967963 0.10132252
000210 02 36 3f be 31 74 5a be 3c c6 c3 bd ab 19 6c 3e
       -0.18672946 -0.21333386 -0.095592946 0.23056667
000220 4a ce 09 be 32 53 c0 3c 70 93 5f bd a5 ea de 3d
       -0.134576 0.02347717 -0.054583967 0.10884599
000230 ce 84 81 bd e5 5c 1f 3d 39 bc f7 3d 00 8d c8 3b
       -0.063241586 0.03890695 0.120964475 0.006120324
000240 49 a0 51 bd 6e 67 ba 3d 8f 5a 1d bd c1 aa b1 bb
       -0.05117825 0.09101759 -0.03841644 -0.005421967
000250 24 f3 04 3e b2 68 24 be 9f 61 31 be bc b5 53 3d
       0.12983376 -0.16055563 -0.17322396 0.051686987
000260 59 29 26 be 69 9e 3e bd 2a 86 c9 3d 17 53 42 3d
       -0.1622671 -0.04653779 0.09840043 0.047442522
000270 ec 4b da bd ae f8 ec bd 25 07 25 3e a4 ef 35 be
       -0.10659012 -0.115708694 0.16116007 -0.17767197
000280 0b 24 7e be 33 da c1 3d be b1 8b bd 8b f4 5e 3e
       -0.24818437 0.09465446 -0.06821011 0.21772973
000290 ec 16 b4 bd e4 91 0b bc 1a 61 97 bc 2c a1 2b 3d
       -0.087934345 -0.00851867 -0.018478919 0.041901752
0002a0 49 c2 0f be 19 1e 6a 3d 9e e2 d5 bd 1f c5 e6 3d
       -0.14038958 0.05715761 -0.104436144 0.112680666
0002b0 18 e7 2f 3e ed 8f 23 be 79 22 1d 3d a4 f6 cf 3d
       0.17177999 -0.15972872 0.038362954 0.10154465
0002c0 79 3d cb bc fd 26 f4 bd 1c 8f 24 3e 6d ab 6c be
       -0.024809586 -0.11921499 0.16070217 -0.23112269
0002d0 03 b2 88 bc da c4 22 be 19 eb 29 bc 14 28 03 be
       -0.016686445 -0.15895405 -0.010370993 -0.12808257
0002e0 28 de 00 bd f8 d0 31 3e e1 30 2f bd ca f5 69 be
       -0.031461865 0.17364872 -0.042771224 -0.22847667
0002f0 72 df 16 3e a2 30 d8 bd be f1 4c 3d 71 7c 0b 3e
       0.14733675 -0.10556151 0.05003523 0.1362169
000300 e8 92 f7 3d 6f 23 3f be e2 b6 92 bd da 5a 6c bd
       0.12088567 -0.1866586 -0.071637884 -0.05770383
000310 98 93 ef bc 6f 98 c5 bd 06 ec bd bd 84 4c 4c 3e
       -0.029245183 -0.09648215 -0.092735335 0.19951063
000320 f2 cf d5 bc af 3e af bd 89 d3 f5 bb 05 16 ae bd
       -0.026100133 -0.08556878 -0.0075020236 -0.08500294
000330 bf 66 3f 3b 47 f0 3b 3e 84 ab 38 3d 6b 72 25 3e
       0.0029205529 0.18353377 0.045085445 0.16156928
000340 36 f7 16 bd 4c c4 ff 3d ff d7 f9 bc 28 14 6e bd
       -0.036856852 0.124886125 -0.030498503 -0.05812469
000350 67 f0 93 3d 96 44 43 3d aa 39 9c 3b 15 34 b5 bd
       0.072235875 0.04767283 0.0047676163 -0.088478245
000360 71 49 17 bd 82 ae f1 3c 63 93 c5 3d 40 92 0e 3e
       -0.036935274 0.029502157 0.096472524 0.13922977
000370 57 5b 00 be 8a 8e d9 bd a7 c9 4d 3d e3 23 54 bd
       -0.12534843 -0.1062289 0.05024114 -0.051792037
000380 a9 8c f0 3d 18 ff 3d be bc f3 4b bd 89 84 ad 3d
       0.11745579 -0.18554342 -0.04979299 0.08472545
000390 0c 5d 03 3d d9 0d 66 3e 4f fd 4b 3e ea 28 d3 bb
       0.03207116 0.2246622 0.19920848 -0.0064440863
0003a0 e0 b4 82 3d a4 1c b6 bd 6c 95 4c 3e d5 35 69 bd
       0.063821554 -0.088921815 0.19978875 -0.056936104
0003b0 68 03 40 3d 87 b3 83 bd db dd 8f 3d de 21 e7 bd
       0.04687825 -0.064307265 0.070247374 -0.112857565
0003c0 75 fd 63 bd 0a 28 bd bd 44 4f c8 3d 71 dd 1a 3e
       -0.055661637 -0.092361525 0.09780744 0.15123536
0003d0 d4 3b 7c 3d c6 4e 8e 3c 72 22 2e 3d 2c 9b b9 bd
       0.061580494 0.017371546 0.04251332 -0.090628
0003e0 ed 3b 34 3e 46 67 ed 3d 75 f4 02 be 3b f0 fc 3c
       0.17600985 0.115919635 -0.12788565 0.03087627
0003f0 b1 13 76 3e 97 11 84 bc 32 19 91 3c c1 b9 64 3e
       0.24030949 -0.016121669 0.01771221 0.22336484

layers.0.bias f4 [200]
000000 53 7b 01 3e b0 20 04 be 75 43 fb bd 53 f7 62 bd
       0.126447 -0.12903094 -0.12268726 -0.055411648
000010 40 9b 36 3e 5b 9c 1f be b7 21 30 bc ad 24 ad 3d
       0.1783266 -0.15586989 -0.010750226 0.08454261
000020 ad 4a 63 bd a1 2b a7 3d 6c d6 4a 3e 10 87 a2 bb
       -0.05549114 0.081626184 0.19808358 -0.0049599484
000030 78 67 50 3e b3 38 00 be b2 51 b3 bd a8 2b 23 3e
       0.2035197 -0.12521629 -0.087558165 0.15934622
000040 d0 a1 26 bd a0 a0 2b 3e 84 a5 d1 3d 89 b7 1b bd
       -0.04068166 0.16760492 0.10236648 -0.03801683
000050 c5 ee b0 3d 32 2d 1d bc b1 b0 2f 3d b3 66 da bc
       0.08639292 -0.009593295 0.042893115 -0.026660299
000060 20 15 d3 bd 3a 9a e9 3d ea 38 48 3e e5 92 29 be
       -0.10306764 0.114063695 0.19552961 -0.16559942
000070 8c 83 d4 bd 14 d0 3c 3e 01 03 4f 3d 8e d7 38 3e
       -0.10376653 0.1843875 0.050539974 0.18050978
000080 a1 7c 39 3e dc 9d b8 3c 8c 34 d9 3d b9 77 38 3e
       0.18113948 0.02253621 0.10605726 0.1801442
000090 6e 9d b3 3b 70 9c 2b bd 4c 24 cb 3d f0 2d 26 bb
       0.0054814136 -0.041897237 0.099190325 -0.002535697
0000a0 8c 89 1c bd ff e7 c1 3d c4 3f 57 be 56 25 54 3e
       -0.038217112 0.09468078 -0.21020418 0.20717368
0000b0 64 80 24 3e df 6b dd 3d be fb c6 bd e6 9a c9 bd
       0.16064602 0.108115904 -0.09715985 -0.09843998
0000c0 ae 1a 4b 3e e7 ad 7f 3e 82 7c d5 bd c0 d1 db bd
       0.19834396 0.24968682 -0.104241386 -0.10733366
0000d0 c0 e1 8d 3c cb ce c0 3d b3 5e 45 3d 76 46 20 be
       0.01731956 0.09414443 0.048186015 -0.15651879
0000e0 7a af 51 be 75 40 0d 3d 0a d7 99 3d 19 ba 93 bb
       -0.20477095 0.0344853 0.075117186 -0.0045082686
0000f0 89 83 e1 3d 23 e3 3f bd 1f 89 53 be a7 cf 00 3e
       0.110114165 -0.046847474 -0.20657776 0.12579213
000100 ab f5 bd 3d ff 6c e9 bd fb d9 c2 3d f0 f8 15 be
       0.09275373 -0.113977425 0.09514233 -0.14645743
000110 2a eb 36 3e c0 b0 40 be 30 19 ec 3d be 05 e4 bd
       0.17863145 -0.18817425 0.11528242 -0.11133908
000120 ae e7 b0 3d b3 d3 05 be 92 70 af bd 68 79 fd 3d
       0.086379394 -0.13069038 -0.08566393 0.12376672
000130 a3 6f d1 3d 37 d5 16 3d 58 48 f0 3d 63 61 0b 3e
       0.10226371 0.03682443 0.117325485 0.13611369
000140 cd f0 35 3e a5 05 3d 3e 1a 3f 06 bb c8 cb 46 bd
       0.1776764 0.18459184 -0.0020484389 -0.048534185
000150 97 44 03 3e 38 fd 54 be e6 65 f2 bd e9 e6 7e 3d
       0.12819134 -0.2079972 -0.11835842 0.06223193
000160 7c e8 0e bd 3b e3 86 3e 75 c8 b6 3d 47 e8 ce bd
       -0.034889683 0.26345238 0.08924953 -0.10102897
000170 21 e6 3a 3e f0 8c 1e be 01 66 16 3d 40 76 c9 bd
       0.1825185 -0.15483451 0.036718372 -0.098370075
000180 20 f9 29 3e b3 69 d3 3c ec 32 40 3d 23 3d d6 bd
       0.1659894 0.025807237 0.046923563 -0.1046088
000190 ff cb d6 3d c1 f9 25 3e 94 40 49 3e 05 00 0f 3e
       0.10488128 0.16208555 0.19653541 0.13964851
0001a0 10 43 ae bc b4 35 9c bd ca 97 95 3e 44 c7 1d 3e
       -0.021272212 -0.076274306 0.29217368 0.15408045
0001b0 9b 22 12 bd c0 d4 1e bd c1 eb 01 3e 6b 5d 05 3e
       -0.035677534 -0.038777113 0.12687589 0.13023917
0001c0 68 0f 76 bc d0 79 42 bd 58 13 de 3d 42 84 9c bc
       -0.015018322 -0.04747945 0.10843533 -0.019106034
0001d0 8c a1 c4 bb c8 55 d0 bd 99 87 a2 3d d2 ee 0c be
       -0.006000703 -0.101726115 0.079360195 -0.13762978
0001e0 3f 68 0a 3e c8 cc 7b bd 3f df 12 be 78 68 3a 3d
       0.13516329 -0.06147459 -0.14342974 0.045509785
0001f0 f0 48 ec 3d 6a f8 15 be f1 51 2b 3d c7 23 a6 bc
       0.11537349 -0.14645544 0.041826192 -0.020280732
000200 26 05 42 bd 2f 65 1d 3d 43 13 fb 3d ca 72 6f 3e
       -0.04736819 0.038426574 0.12259533 0.23383632
000210 29 d8 20 3e 28 13 b0 3c 71 3b c5 bd 08 16 68 3e
       0.15707459 0.02149351 -0.09630478 0.22664654
000220 7c fe 14 3e 89 6b 78 bd 33 75 53 3e 35 9f d9 3c
       0.14550203 -0.06064943 0.20650177 0.026565174
000230 f7 f9 93 3e 80 ff fd bd 86 09 51 3d 42 0f 16 3e
       0.28901646 -0.124022484 0.051034473 0.14654258
000240 b7 f1 72 bc 13 85 08 3e 51 50 26 3e fe 25 34 3e
       -0.014828137 0.13332014 0.16241576 0.17592618
000250 92 05 7f bc 88 3b 02 3e cb 74 51 3e a5 56 19 bd
       -0.015565293 0.12718022 0.20454709 -0.037436146
000260 f6 66 f4 bd fb e4 e3 bd 1f 1e 01 be bc a4 0b 3e
       -0.11933701 -0.11127659 -0.12609147 0.1363706
000270 00 f6 1e 3e b8 dd 8a 3d 49 af 98 bc 26 ea 27 3e
       0.15523529 0.06780571 -0.01863827 0.16397914
000280 b7 e1 00 3e 03 5c cb 3d 00 c7 d1 bd 5c 40 83 3d
       0.12586103 0.09929659 -0.10243034 0.0640876
000290 6e a0 12 be 25 8f 98 bd 20 c2 41 3e 57 d2 f4 3d
       -0.14319012 -0.07449178 0.18921709 0.11954182
0002a0 fd 7c b0 3d ee 59 3a be fa 45 cf bd 76 28 f0 3d
       0.086175896 -0.18198368 -0.10120769 0.11726467
0002b0 ce de 16 3e 08 e2 1e be 6c 02 98 3d 2f a4 a7 bd
       0.1473343 -0.15515912 0.07422337 -0.081856124
0002c0 97 dd 2f be dd 4d 3c 3e 3b 78 15 be 7a 07 55 be
       -0.17174374 0.18389077 -0.14596646 -0.20803633
0002d0 6b 84 6f 3e a5 de 95 bd 0a bc 10 3e 33 71 90 3c
       0.23390357 -0.07317857 0.14134231 0.017632103
0002e0 b8 5e 99 3c f9 57 2b bd ed 24 9e 3c 91 5f ed 3c
       0.018721923 -0.041831944 0.019304717 0.028976234
0002f0 d7 d7 cd 3d 0a 0b 8c 3c e4 b3 5f be a4 0d 82 3d
       0.10050934 0.017095108 -0.21845967 0.06350258
000300 fd c7 00 be 33 99 83 bb 84 93 71 3e 89 ca f7 3d
       -0.1257629 -0.0040160655 0.23591429 0.120991774
000310 41 f0 4b be d2 32 7f bd dd 5f fa 3d 67 ac 40 3e
       -0.19915868 -0.062304325 0.12225316 0.18815766

layers.2.weight f4 [200]
000000 53 16 84 3f 6e 39 84 3f 3e 25 82 3f 9a fe 78 3f
       1.0319313 1.0330026 1.0167615 0.9726349
000010 27 2e 83 3f 01 5f 7d 3f d1 d5 81 3f 33 eb 7b 3f
       1.024846 0.9897309 1.0143377 0.9840576
000020 93 3b 79 3f 1e 59 84 3f 33 33 84 3f 48 5f 82 3f
       0.9735653 1.0339696 1.0328125 1.0185328
000030 99 93 7c 3f ce cd 87 3f 17 b6 83 3f 1f 97 84 3f
       0.98662716 1.0609682 1.0289944 1.0358618
000040 f0 32 83 3f 78 6e 7d 3f b6 43 81 3f 4f 32 81 3f
       1.024992 0.98996687 1.0098789 1.0093478
000050 7f d1 7b 3f f5 c6 79 3f 6d 09 77 3f a4 11 81 3f
       0.9836654 0.9756921 0.9649876 1.0083508
000060 65 ab 81 3f 45 dd 82 3f 15 fa 83 3f 34 f4 7d 3f
       1.013043 1.0223776 1.0310694 0.9920075
000070 d4 1d 7b 3f f8 61 74 3f df ed 74 3f 34 43 8a 3f
       0.9809239 0.9546199 0.9567546 1.0801759
000080 b3 27 77 3f 29 83 80 3f 63 a3 7f 3f b6 0f 86 3f
       0.9654495 1.0040027 0.99858683 1.0473545
000090 8b 34 7a 3f 24 2a 77 3f f4 cf 7a 3f 65 cc 75 3f
       0.97736424 0.96548676 0.9797356 0.96015006
0000a0 66 99 82 3f f7 75 7a 3f 70 72 7a 3f 86 0c 79 3f
       1.0203063 0.9783625 0.9783087 0.97284734
0000b0 e9 a0 88 3f 0a 6f 7b 3f 7a 7e 7f 3f 5b 6f 7c 3f
       1.0674106 0.9821631 0.9980236 0.98607415
0000c0 7d 20 85 3f 0d de 7d 3f 81 cf 77 3f a6 1d 84 3f
       1.040054 0.9916695 0.96801 1.0321548
0000d0 6c da 82 3f 8a a4 81 3f 11 1c 83 3f 06 87 80 3f
       1.0222907 1.0128338 1.024294 1.0041206
0000e0 45 84 80 3f 2a d6 7b 3f 1a f5 81 3f af 27 7a 3f
       1.0040365 0.98373663 1.0152924 0.977168
0000f0 c6 a7 77 3f 36 f8 78 3f 0c 47 7b 3f 45 fd 89 3f
       0.96740377 0.9725374 0.98155284 1.0780417
000100 be 24 77 3f e2 06 72 3f aa d0 7a 3f ad 67 76 3f
       0.9654044 0.9454175 0.97974646 0.96251947
000110 10 6c 82 3f c5 10 85 3f b2 52 80 3f 8a 95 86 3f
       1.0189228 1.0395743 1.0025237 1.0514386
000120 4d 46 7b 3f b0 8a 7b 3f 77 95 7e 3f 74 73 79 3f
       0.98154145 0.98258495 0.99446815 0.9744179
000130 ca 1a 80 3f 42 6a 80 3f f7 ee 7a 3f ca 50 7a 3f
       1.0008175 1.0032427 0.9802088 0.97779524
000140 42 c2 7a 3f 19 f2 78 3f e2 14 82 3f 0f f7 7c 3f
       0.97952664 0.9724441 1.0162623 0.9881448
000150 e0 0d 7b 3f bd 96 81 3f 06 63 7c 3f 0b d7 84 3f
       0.98068047 1.0124127 0.985886 1.0378126
000160 2f 3f 7f 3f 30 5d 7e 3f 43 52 77 3f 65 6f 7f 3f
       0.99705786 0.9936094 0.96609896 0.9977935
000170 d4 2e 7b 3f 17 2f 7b 3f 74 ce 78 3f 06 ed 80 3f
       0.9811833 0.9811873 0.9719002 1.0072334
000180 49 2e 7e 3f 0b 94 84 3f 6c 63 7d 3f c6 20 78 3f
       0.99289376 1.0357679 0.9897983 0.9692501
000190 06 22 84 3f 97 83 80 3f 3b 2d 77 3f 63 1f 82 3f
       1.0322883 1.0040158 0.9655339 1.0165828
0001a0 27 1d 80 3f 52 1a 7b 3f 69 73 83 3f 16 fc 7e 3f
       1.0008897 0.98087037 1.0269595 0.996034
0001b0 6c bd 76 3f d2 46 7b 3f 83 f8 79 3f 51 fa 83 3f
       0.96382785 0.9815494 0.97644824 1.0310766
0001c0 d0 1f 79 3f 16 b0 74 3f af 09 75 3f 76 5e 7b 3f
       0.9731417 0.95581186 0.957179 0.9819101
0001d0 77 71 7b 3f 9b c0 7a 3f 37 07 82 3f 93 51 82 3f
       0.9822001 0.9795014 1.0158452 1.0181144
0001e0 4e 1a 81 3f 9c 88 78 3f 1f 21 77 3f 8d 7d 76 3f
       1.0086153 0.9708345 0.96534914 0.96285325
0001f0 b1 48 79 3f 4a 5b 7a 3f da 40 82 3f 70 1d 80 3f
       0.97376543 0.97795546 1.0176041 1.0008984
000200 5f d6 72 3f a8 9b 82 3f 91 f8 76 3f 9c c1 82 3f
       0.94858354 1.0203753 0.9647303 1.0215335
000210 77 7b 7d 3f c9 b4 77 3f e3 a7 79 3f 79 57 7e 3f
       0.9901652 0.9676023 0.975218 0.9935222
000220 11 12 7b 3f 15 e0 72 3f 67 d0 7a 3f 78 dc 80 3f
       0.9807444 0.9487317 0.97974247 1.0067282
000230 12 fa 89 3f df d6 7c 3f 3a 06 7b 3f 6a e7 7f 3f
       1.077944 0.9876537 0.98056376 0.99962485
000240 91 bc 77 3f a1 8b 80 3f c9 61 8c 3f e8 8f 83 3f
       0.96772105 1.0042611 1.0967342 1.0278292
000250 7f 51 81 3f f3 6e 86 3f 7d e3 82 3f 10 6b 86 3f
       1.0102996 1.0502609 1.0225674 1.0501423
000260 bc 66 7b 3f 47 5e 81 3f 1a a5 79 3f 0b 8f 81 3f
       0.98203635 1.0106896 0.9751755 1.0121778
000270 ca e0 81 3f 33 81 83 3f cf 56 7b 3f 5c 6b 78 3f
       1.0146725 1.0273803 0.98179334 0.9703882
000280 55 c6 7b 3f cd 31 7f 3f ea fd 87 3f f0 cc 79 3f
       0.98349506 0.99685365 1.0624363 0.97578335
000290 32 ed 81 3f 9b 26 79 3f 3b 74 75 3f a9 cb 7b 3f
       1.0150511 0.9732453 0.9588048 0.98357636
0002a0 4a b2 7a 3f d3 dc 81 3f 48 ee 76 3f 34 07 75 3f
       0.979283 1.0145515 0.9645734 0.95714116
0002b0 2e bb 83 3f a8 14 7b 3f 93 c1 84 3f 35 72 7a 3f
       1.0291498 0.98078394 1.0371574 0.97830516
0002c0 91 dc 81 3f 59 50 78 3f 89 2d 78 3f 52 c1 7d 3f
       1.0145437 0.969976 0.9694448 0.9912311
0002d0 75 e3 7a 3f e2 39 76 3f c1 b0 7a 3f 02 d5 77 3f
       0.9800332 0.9618207 0.97925955 0.968094
0002e0 e6 01 81 3f 34 93 86 3f 9f e2 72 3f 24 8c 76 3f
       1.0078704 1.0513673 0.94877046 0.9630759
0002f0 65 28 7b 3f 24 83 82 3f a9 3e 86 3f 04 68 78 3f
       0.9810851 1.0196271 1.0487872 0.97033715
000300 29 83 79 3f 35 db 7f 3f 39 58 81 3f cd b7 81 3f
       0.9746576 0.9994386 1.0105048 1.0134217
000310 15 1b 78 3f ab 1d 76 3f f8 b0 88 3f 77 2b 7d 3f
       0.96916324 0.9613902 1.0679007 0.9889445

layers.2.bias f4 [200]
000000 aa ad 2f 3d 5a 7d 83 3d fa be e9 3c 55 c5 0e bd
       0.04289023 0.06420393 0.028533448 -0.03485616
000010 75 65 b8 bc b5 92 9d ba 09 5a e9 bc 26 64 bb bc
       -0.022509316 -0.0012021872 -0.028485315 -0.022874903
000020 e4 f4 19 3d d9 81 14 3d 12 5e 1a 3d 72 d3 49 3d
       0.03758706 0.036256645 0.03768737 0.049273916
000030 64 35 91 3c f2 d5 2a 3d 7a 5a 6b bc e1 d7 d8 bc
       0.017725654 0.04170794 -0.014364833 -0.026470127
000040 54 aa b0 3c 5c 88 10 bd ba d3 46 3d da 8e c8 3c
       0.021565594 -0.035286292 0.048541762 0.02448218
000050 e0 03 86 bc cc 70 76 3d f0 65 04 3d 5c 07 c3 bc
       -0.01635927 0.060166165 0.032323778 -0.02380722
000060 d9 24 0f 3d fa b2 b7 bc 8d ad a6 3c 15 0b c2 bc
       0.03494725 -0.02242421 0.020346427 -0.023686925
000070 87 af 15 bc 73 0e a2 bc 94 d8 31 bd 7b 9f 3b 3d
       -0.009136087 -0.01978228 -0.043419436 0.04580639
000080 b4 73 d1 3c 24 42 27 3d 15 7a de 3c 4f 52 01 3d
       0.025567867 0.04083456 0.027157823 0.031572636
000090 d1 6f 60 bd 97 2e dd 3b 40 87 1d 3c 70 19 28 bd
       -0.054794136 0.0067499387 0.009614766 -0.041039884
0000a0 ed 06 0a 3d 69 8a 9e bc 92 ed 97 bd a2 ee 2f bd
       0.03369801 -0.019353108 -0.0741836 -0.042952187
0000b0 43 aa d6 3c 4d c4 58 3c e1 be dd bc e5 69 fd 3c
       0.026204234 0.0132303955 -0.027068557 0.030934284
0000c0 c4 cc 34 bc aa 94 9f 3c 94 dc d2 bc 97 70 f1 3a
       -0.011035148 0.019480068 -0.025739945 0.0018420395
0000d0 16 65 75 3c a5 33 43 3c 57 a9 af 3c 0a 63 eb bb
       0.014977714 0.0119141685 0.021443052 -0.0071834372
0000e0 68 30 31 bd b4 24 0d bd c5 24 e2 3c ba f2 e1 bc
       -0.043259054 -0.03445883 0.027605424 -0.027581561
0000f0 50 d4 37 bd a4 15 6a bc 1a 28 7c 3b 08 10 0a bb
       -0.04488021 -0.014287386 0.003847605 -0.0021066684
000100 8c 62 48 bd 19 62 ac 3c c9 40 6c 3c 1a e2 a2 bc
       -0.048922107 0.02104287 0.014419743 -0.019883204
000110 48 3c cf 3c 02 27 90 bd 2e 36 9c bc 77 a1 67 3c
       0.025297299 -0.0703869 -0.019068804 0.014137617
000120 86 e4 26 3d 30 5f e6 bb 20 16 76 3c ab c7 e3 3c
       0.04074528 -0.00703039 0.015019923 0.02780517
000130 18 a6 44 3d 2b 80 7d 3c b5 9b cf 3b 31 29 43 bd
       0.04800996 0.015472452 0.0063357004 -0.047646705
000140 50 7f ea 3c 2a ff 79 3d 50 6e 15 bb 25 f2 af 3a
       0.02862516 0.06103436 -0.0022801347 0.0013423605
000150 fa 44 b7 3c 72 51 d2 3c 91 80 86 3d 8c cc fa bc
       0.022371758 0.025673602 0.06567491 -0.030615114
000160 e1 73 35 3d 8c 89 0e bd 13 14 30 3d a5 9b 5d 3d
       0.044299964 -0.034799144 0.042987894 0.054103512
000170 f1 1e 17 bd 6d 64 19 bd a3 18 0e bd 9b 66 15 3b
       -0.036894742 -0.03744929 -0.034691464 0.0022796753
000180 cc 16 1c bd 6c b7 60 bd d3 b7 a1 3c 30 84 26 bd
       -0.03810768 -0.054862425 0.019740975 -0.040653408
000190 d8 84 13 3d e3 a2 04 3d d1 43 40 3c 5a 16 46 bc
       0.03601536 0.032381903 0.011734919 -0.01209029
0001a0 f4 ee 5f bd 66 cf 19 bd ac 26 e9 bc 41 f7 f7 bb
       -0.054671243 -0.037551306 -0.028460823 -0.0075673168
0001b0 3c da 56 bd c6 3b 92 bb 1c 27 a0 3b 07 b4 c3 bc
       -0.05245422 -0.004462692 0.0048874747 -0.023889555
0001c0 e7 79 b7 3c a2 c1 64 bd f5 d3 e3 bc 7e d4 78 3c
       0.022396995 -0.055848725 -0.02781103 0.015187381
0001d0 8c 5b ef bb 86 2f 45 bd 35 4d c3 3c ab 1b a3 bd
       -0.0073046144 -0.048141025 0.023840526 -0.079642616
0001e0 01 af 88 bb 61 1e ed bc fc cb 03 3d 35 74 33 bd
       -0.0041712527 -0.02894515 0.032176957 -0.043811996
0001f0 21 f9 12 bc a2 55 3b bd 2a 2d 02 bd 69 88 e1 bc
       -0.00897053 -0.045735963 -0.031781353 -0.027530866
000200 3b b2 22 3c 49 2f 59 bd b7 49 2e 3d d5 53 3a 3d
       0.009930189 -0.05302361 0.04255077 0.045490105
000210 5b 1f 3b 3c 39 83 25 bd f8 c6 af bc 5a ed 8f bc
       0.01142105 -0.040408347 -0.02145718 -0.017569233
000220 60 8f be 3c d7 6d 2c bc 21 8d 57 3b 74 96 97 3d
       0.023261726 -0.010524235 0.0032890516 0.074017435
000230 18 de b8 bc 48 dd bf 3b 98 f7 7c 3c 1c 0d 43 3d
       -0.02256684 0.005855236 0.01543989 0.047619924
000240 f7 65 30 bb 45 ce ab bc 00 b1 df 3b d0 74 47 3d
       -0.0026916245 -0.02097238 0.00682652 0.048695385
000250 df 25 19 3c f1 61 11 3d de a3 8b 3c e3 45 f5 3c
       0.009347408 0.035493795 0.017045911 0.029940551
000260 ea 45 5c bb d9 7c 68 bc 1b f3 60 bd 52 53 96 bd
       -0.0033611008 -0.014189922 -0.054919343 -0.07340111
000270 14 81 52 3d e6 ee 96 3c 10 79 4a bd 24 56 d7 3a
       0.05139263 0.018424463 -0.04943186 0.001642887
000280 21 a9 63 3c 6b 43 97 3c a3 db e1 3c d1 c1 dd bc
       0.013895304 0.018464765 0.027570551 -0.027069958
000290 20 20 69 3b c1 17 29 3d 8d dc 48 ba 10 96 96 3b
       0.0035572127 0.04128242 -0.0007662259 0.0045955256
0002a0 e0 cf 92 bc 4c 86 04 bc e7 66 78 3c fa 1f 94 bb
       -0.017921388 -0.0080886595 0.015161253 -0.0045204135
0002b0 1e 6c 34 3d 4e 6d 95 bc ab 71 da 3c 06 8e 2b 3d
       0.04404842 -0.018240597 0.02666553 0.04188349
0002c0 30 df 15 3b 2a 0c f2 bc ba bf bb bd 8c 12 46 bc
       0.0022868626 -0.029546816 -0.09167428 -0.012089383
0002d0 6f 19 b4 3b a1 ee ef bc 3a d1 38 3d ac 2d 7c bc
       0.005496196 -0.029288592 0.04512141 -0.015391748
0002e0 73 8c 1e 3c d9 dc 92 bc 0f 57 b1 3c 7c 0e 47 bb
       0.00967704 -0.017927574 0.021647958 -0.0030373624
0002f0 d7 c7 ba 3c 8b 68 13 bd 45 86 a7 bd a5 5f 4d 3c
       0.02280037 -0.03598837 -0.08179907 0.01253501
000300 af 00 2a 3d df ae 40 bd 5c dd 96 3c b4 d3 0b 3d
       0.04150456 -0.04704177 0.0184161 0.034137443
000310 d2 d3 24 3b e6 19 16 3c 11 6d 02 3d d1 f2 82 3c
       0.0025150669 0.009161448 0.031842295 0.015984925

layers.2.running_mean f4 [200]
000000 44 c4 81 3e a3 d5 61 3e be 42 83 3d 1d bf 5b 3d
       0.2534505 0.22054152 0.064092144 0.053649057
000010 9e ea b2 3e c9 c8 a3 3d 56 e8 56 3d 86 62 5b 3e
       0.34944624 0.07997281 0.052467667 0.21424302
000020 ab 97 8b 3d b3 3e 6b 3e f1 21 7e 3e 6b 5c b5 3e
       0.06816038 0.22973137 0.24817635 0.35422072
000030 ba 64 2b 3f bc d6 d2 3d 8d 57 3d 3e 90 45 a2 3e
       0.6695057 0.102948636 0.18490429 0.31693697
000040 c8 05 9e 3e fe 9d 13 3f 63 e5 64 3e bd 1e 7f 3e
       0.30863786 0.5766295 0.22353129 0.2491407
000050 04 df 3c 3d 36 af fa 3e a7 90 2f 3e ea f3 54 3d
       0.04611112 0.489618 0.17145024 0.051990427
000060 db 68 48 3e b1 eb 56 3e 73 75 a5 3e ab 01 b6 3d
       0.19571249 0.20988347 0.3231617 0.08887037
000070 97 bb 4a 3e 28 df 6f 3e 5a fc ec 3d aa a1 8a 3e
       0.19798122 0.23424971 0.1157157 0.27076465
000080 df 38 ae 3e 23 e6 83 3e b2 c0 94 3e 5f ec 04 3e
       0.34027764 0.25761518 0.29053265 0.12980793
000090 40 46 c6 3e 93 eb bc 3d 83 68 2e 3e 5f 92 fd 3d
       0.38725471 0.0922462 0.17032056 0.12381434
0000a0 c6 a1 38 3e 38 f5 b1 3e 69 ce e9 3b 2c 47 97 3e
       0.18030462 0.347574 0.0071352017 0.29546487
0000b0 b8 68 81 3e 86 b2 25 3e 8a 1b 2b 3e e4 d4 03 3e
       0.25275207 0.16181383 0.16709724 0.1287418
0000c0 d5 2a 5f 3e 3c 2c 9a 3e 8d f1 4d 3e 6f 60 9d 3d
       0.21793683 0.30111873 0.20111676 0.07684409
0000d0 f8 2b 1c 3e cd c2 d1 3e 03 55 04 3e 25 1f 9e 3e
       0.15251148 0.40968934 0.12923054 0.30883136
0000e0 17 ff 13 3e 42 11 85 3e 4a 6a c4 3e c8 a3 00 3e
       0.14452778 0.2598973 0.38362342 0.12562478
0000f0 e4 e5 a9 3e c9 f4 33 3e 4a e9 bc 3d cd ca 94 3e
       0.33183205 0.17573847 0.09224184 0.29060975
000100 59 2f 78 3e f1 a3 39 3e a9 80 a4 3e 37 3c c0 3d
       0.24236812 0.18128945 0.3212941 0.09386485
000110 40 b7 d5 3e 21 e9 b9 3c 59 3b 34 3f 4e 5c 8e 3e
       0.4174137 0.022694172 0.7040306 0.27804798
000120 07 f4 16 3e cc 9f 9e 3d 34 a8 ee 3d 04 32 29 3e
       0.14741527 0.077453226 0.11653176 0.16522986
000130 b5 0a e1 3d b7 9d e1 3d 18 22 e5 3e f7 d5 12 3f
       0.1098837 0.1101641 0.44752574 0.57357734
000140 57 2c ff 3d cb f2 00 3f c9 8b df 3d e5 d7 a3 3d
       0.12459629 0.5037047 0.10915334 0.08000163
000150 fd c8 9e 3e 27 fb 65 3e cc d4 d0 3b 78 56 8f 3e
       0.31012717 0.22459088 0.0063730236 0.27995658
000160 4e a6 21 3e 37 dc 99 3e 72 c1 93 3e d8 3f 7d 3e
       0.15786096 0.30050823 0.28858525 0.24731386
000170 57 c1 dd 3e 27 77 37 3e 30 a9 20 3e bd da 83 3d
       0.4331157 0.17916547 0.1568954 0.064382054
000180 14 9b 47 3e 03 fa 35 3d 75 e5 a2 3e ee c9 6a 3d
       0.19492751 0.044427883 0.31815687 0.05732148
000190 42 47 07 3f 36 40 96 3d 8d d1 d4 3e 82 3c cb 3d
       0.52843106 0.07336466 0.41566125 0.0992365
0001a0 a0 55 88 3d cf 0c 6d 3e 39 38 ad 3e 9b dd 20 3e
       0.06656957 0.23149417 0.33831957 0.15709536
0001b0 66 2c 02 3f 0e 98 6e 3d cf 23 8c 3d 26 d3 43 3e
       0.50848997 0.05825048 0.068427674 0.19123515
0001c0 37 2b 95 3e 15 1e 4c 3d 2f 7c 3c 3e 3d 14 98 3e
       0.29134533 0.049833376 0.18406747 0.2970294
0001d0 fe d3 ef 3d 92 f2 a4 3d 0e 4e 4c 3e 2d fc 0a 3d
       0.11710356 0.08054079 0.1995165 0.0339319
0001e0 6a f3 5d 3e 95 17 97 3e 25 b9 e0 3e 8b 35 33 3d
       0.21674886 0.2951018 0.43891254 0.043752234
0001f0 18 de 8a 3e ce 3f f0 3d d8 6e a5 3e 05 d7 1c 3e
       0.2712257 0.1173092 0.3231113 0.15316398
000200 4b 72 84 3e 30 9a 07 3d 98 4e 2c 3f 53 03 c7 3e
       0.2586845 0.03310603 0.67307425 0.38869724
000210 d6 e0 9f 3e 5e 02 67 3e bf c4 0d 3e c2 38 98 3e
       0.31226224 0.22559497 0.13844584 0.29730803
000220 7e 2c 6d 3e 50 cc 7c 3e c9 fd 1c 3f a9 60 14 3e
       0.23161504 0.24687314 0.61324745 0.14489998
000230 27 c1 c1 3e 94 6a 90 3d 69 40 a3 3e 3f bc 87 3e
       0.37842676 0.07051578 0.3188508 0.26510808
000240 78 51 8e 3e b4 6a 52 3e d9 16 fc 3d e0 b4 9d 3e
       0.2779653 0.20548517 0.12309045 0.3080206
000250 90 4c d9 3d e8 a0 9e 3e e4 6e 96 3e d4 24 d0 3d
       0.10610306 0.30982137 0.29381478 0.101632744
000260 fd 23 16 3e bf 1d 9d 3d c2 39 84 3e 5f c1 e0 3e
       0.14662166 0.07671689 0.25825316 0.4389753
000270 b0 c8 96 3e 6b a5 e1 3e 05 44 6e 3d 3a d0 04 3e
       0.29449987 0.44071516 0.058170337 0.12970057
000280 bf 3e 2b 3e 77 68 7a 3e 7a 30 c5 3d 56 d3 df 3d
       0.16723154 0.24453913 0.09628387 0.10928981
000290 cb 3c 53 3e ef 92 2a 3e 28 ac bf 3e 98 fe ac 3e
       0.2062866 0.16657613 0.37436032 0.3378799
0002a0 cf 77 40 3e b3 39 7b 3d 83 52 53 3e f6 b2 06 3e
       0.18795703 0.061334323 0.20636944 0.13154206
0002b0 30 39 91 3e 82 e3 37 3d 0d 80 47 3e 75 4a 19 3e
       0.28363943 0.044894703 0.19482441 0.1496981
0002c0 1c 85 dd 3d eb ef 6f 3e 7e 40 2c 3e 96 03 12 3e
       0.10816404 0.23431365 0.16821477 0.1425918
0002d0 14 d6 b6 3e cd 7d cc 3c 0f 65 a9 3d ce 5b ff 3e
       0.35710204 0.02496233 0.082712285 0.4987473
0002e0 20 88 7e 3e 52 c6 ac 3e 3c 41 b3 3e 54 cd 44 3d
       0.24856615 0.33745056 0.35010707 0.04804738
0002f0 ee 26 c5 3e 21 0c 7a 3e ae 3e be 3c d2 7a 58 3e
       0.38506263 0.2441869 0.023223247 0.21140602
000300 f7 f9 a9 3e 53 5a e9 3e 35 23 8c 3e 33 fa 9a 3e
       0.3319852 0.45576724 0.2737061 0.30269012
000310 88 af 98 3d 18 ee 1e 3e 32 ce 83 3e 8a 7a 05 3f
       0.07455355 0.15520513 0.25743252 0.52140105

layers.2.running_var f4 [200]
000000 0d 58 2f 3d 58 e5 e5 3d 67 c5 d5 3c a8 6c ac 3c
       0.04280858 0.112253845 0.026095105 0.021047905
000010 b4 99 c3 3d 13 ae 31 3d 75 12 5b 3c 2d 1c 4c 3d
       0.09550801 0.0433789 0.0133711 0.049831558
000020 39 a4 e4 3c 8f bb a8 3d fd 1c 08 3e 4c 35 1d 3e
       0.027910339 0.08238899 0.13292308 0.15352362
000030 90 5c 45 3e ba dc 82 3d 1d b0 00 3d 9e 81 2f 3d
       0.19273591 0.063897565 0.031417955 0.042848222
000040 64 63 38 3d bf 8e 59 3e 06 25 ed 3d 71 ea 61 3d
       0.04501666 0.2124586 0.11579327 0.05515522
000050 63 d8 67 3c 52 3f 1d 3e 54 7c 9a 3d 8a b7 b9 3c
       0.014150712 0.15356186 0.07543245 0.022670526
000060 ab f0 eb 3d 08 8d 88 3d 54 0b 2c 3d aa 11 2c 3d
       0.11520513 0.066675246 0.04200299 0.042009033
000070 a8 4b a6 3d d1 31 a7 3d 52 20 31 3d c8 12 e5 3c
       0.08119899 0.081637986 0.043243714 0.027963057
000080 92 2f fb 3d 68 4e a5 3d 66 d8 47 3d 0b 97 86 3d
       0.12264933 0.080715954 0.048790358 0.06571778
000090 11 6a be 3d be 1d 11 3d 4e 36 90 3d ad 9e 0b 3d
       0.09297574 0.035428755 0.07041608 0.034086872
0000a0 3d d0 b0 3d eb 64 65 3d 1e 65 4a 3b c3 82 fe 3d
       0.08633468 0.056004446 0.0030883024 0.124272846
0000b0 16 d3 c5 3d 7b 7f 92 3d df 37 b8 3d a1 a0 07 3d
       0.09659402 0.07153221 0.089950316 0.033112172
0000c0 ba 54 93 3d 30 52 8e 3d 87 b6 72 3d 4a 47 09 3d
       0.07193895 0.0694927 0.059256103 0.033515252
0000d0 0b f3 a2 3d 80 66 87 3d b7 86 95 3d d6 20 91 3d
       0.07956513 0.06611347 0.073010854 0.07086341
0000e0 9c cf 0b 3d d0 0e df 3d 19 e5 f6 3d 98 9c 59 3d
       0.03413354 0.10891497 0.12055416 0.053127855
0000f0 f0 ca 12 3e 5a 53 78 3d a4 d9 1b 3d 1f 4a 0d 3d
       0.14335227 0.060626365 0.038049355 0.034494516
000100 8e 5a a3 3d 83 40 70 3d 5e b2 df 3d 81 bc 58 3d
       0.07976256 0.058655273 0.10922693 0.052914146
000110 17 48 41 3e f3 c7 b7 3c 1e ea da 3d 14 05 30 3e
       0.18875156 0.02243421 0.106891856 0.17189437
000120 b5 5c 8c 3d ad 4a 8f 3c 2d 13 26 3d 1f 5c 3e 3d
       0.0685362 0.017491663 0.04054563 0.046474572
000130 06 fa 5b 3d da 30 91 3d f7 b3 06 3e 3a 90 06 3e
       0.053705238 0.07089396 0.13154589 0.13140956
000140 b3 ad 71 3d b7 8f 5d 3e 26 ce 51 3d 8f 91 a8 3d
       0.059003543 0.21636854 0.05122199 0.08230888
000150 c5 f7 c1 3d b2 c0 a1 3d ca 2f 19 3b 55 76 19 3d
       0.094710864 0.07898082 0.0023374432 0.037466366
000160 70 2d 83 3d c2 b1 87 3d 52 b8 b8 3d d9 50 07 3e
       0.06405151 0.066257015 0.09019531 0.13214435
000170 ae 2b 5b 3e 81 48 3b 3d fc 77 35 3d d8 8e eb 3c
       0.21403381 0.045723442 0.04430388 0.028754637
000180 89 ff 80 3d 4b c3 18 3d d1 90 9b 3d 0d 41 b5 3c
       0.062987395 0.03729562 0.07595981 0.022125745
000190 a3 18 b4 3d 21 bf 68 3d 9c ef 11 3e 07 26 6d 3d
       0.087937616 0.0568229 0.1425156 0.057897594
0001a0 b5 54 48 3d bc fd 60 3d 0c e5 79 3d e2 56 13 3d
       0.048908908 0.05492948 0.06100945 0.03597153
0001b0 c3 be d9 3d b3 e3 be 3c 39 1b 18 3d 1e 6e bc 3d
       0.10632088 0.023301935 0.037135337 0.09200691
0001c0 ab 83 a4 3d 4e 3d 9a 3c ec d4 58 3d 0a e0 d7 3d
       0.08032926 0.01882806 0.052937433 0.10540779
0001d0 35 3c 50 3d c9 d6 8b 3d d1 55 9b 3d 9f 4a 03 3d
       0.050838668 0.068280764 0.075847276 0.032053586
0001e0 d9 59 ac 3d 58 93 c9 3d 77 a5 0e 3e 24 cf 3f 3c
       0.084155746 0.09842557 0.13930307 0.011707101
0001f0 80 2a c4 3d a0 6c 7e 3d 15 29 b2 3d a6 16 fc 3c
       0.09578419 0.06211531 0.08699242 0.030772518
000200 63 77 b6 3d 43 ed fd 3c c5 38 86 3e 37 dc 1c 3e
       0.0890949 0.030996924 0.26215187 0.1531838
000210 6d 2a a0 3d b8 42 af 3d 1d 79 63 3d 44 5d 85 3d
       0.07820592 0.085576475 0.055535425 0.0651193
000220 9e 74 ef 3d a5 e9 ba 3d 82 7b 1c 3e 06 47 b0 3d
       0.11692165 0.091265954 0.1528149 0.08607297
000230 6c ad 33 3d cc c4 a3 3c 21 42 73 3e 31 5c c2 3d
       0.04386656 0.019991301 0.23755695 0.0949024
000240 12 47 9c 3d b5 ae bf 3d 7d f0 68 3d 86 16 3a 3e
       0.07630743 0.093594946 0.056869972 0.18172655
000250 31 78 9d 3d bc c6 25 3e 85 6f 81 3d 75 8b 26 3d
       0.0768894 0.16189092 0.06320099 0.04066034
000260 af 4e ba 3d 71 2d 04 3d f4 16 92 3d f8 52 ea 3d
       0.09097039 0.0322699 0.07133284 0.11441606
000270 47 0c 14 3e ea af 8e 3d 77 47 e5 3c 17 3d 73 3d
       0.14457808 0.06967147 0.027988179 0.05938443
000280 8d 1e 92 3d cb 2b 4e 3d b3 b0 80 3d 6e 06 48 3d
       0.07134733 0.050334733 0.06283703 0.048834257
000290 24 15 25 3d bd 7d 86 3d 94 a2 11 3e 28 96 0a 3e
       0.040303364 0.065669514 0.14222175 0.13533843
0002a0 a7 c8 68 3d aa 5f be 3c 72 31 55 3d 0f 3b 60 3d
       0.056831982 0.023238976 0.052049108 0.054743823
0002b0 c7 08 cd 3d 6c 08 7c 3c 01 44 a6 3d d4 7f 42 3d
       0.1001144 0.015382867 0.081184395 0.047485188
0002c0 dc 9f 4f 3d 1e a5 6f 3d 44 38 92 3d 9c 93 9a 3d
       0.050689563 0.058507077 0.07139638 0.075476855
0002d0 38 c2 c0 3d 41 12 30 3c 8b bb ee 3c 85 9e e6 3d
       0.09412044 0.01074654 0.029142162 0.11260704
0002e0 6e 61 d5 3d b6 98 4d 3d da e9 f8 3d d1 15 77 3c
       0.10418974 0.050194465 0.12153979 0.015080885
0002f0 de e2 e7 3d 36 36 44 3d fc f3 bc 3c a4 67 45 3d
       0.11322568 0.047903262 0.02306556 0.048194543
000300 21 b6 cb 3d 1e 1e 8d 3d 7a d9 16 3e 91 fd 45 3d
       0.09946848 0.0689051 0.14731398 0.048337523
000310 5c 83 e6 3c 0b 1d 36 3d fe f3 c0 3c 9d 55 1b 3e
       0.028138809 0.04446129 0.023553845 0.15169378

layers.4.weight f4 [100, 200]
000000 29 c3 1d 3d ed e1 e4 3c ff 93 87 bd b5 84 9e 3d
       0.038516197 0.027939761 -0.06620025 0.077401556
000010 47 3f 3a 3d dd f2 b4 3b 72 6e a6 bc d6 5a 16 3d
       0.045470502 0.0055221156 -0.020316336 0.03670772
000020 89 fb 52 3d 57 7c 86 bd dc be c8 bc 1c 7c e6 bb
       0.051509414 -0.06566685 -0.024505071 -0.007033838
000030 63 66 8a bd a6 03 87 3c 17 17 54 bc 1f f9 45 3c
       -0.0675781 0.016481232 -0.012944958 0.012083321
000040 ab d8 28 bd 05 cd 4a bc be 9c a7 bd ac 5d f1 3c
       -0.041222256 -0.012377982 -0.08184193 0.029463612
000050 f7 1c 6c 3d bc 2b 96 3d 12 d1 ff 3b b9 fd 59 bd
       0.05764481 0.073325604 0.0078069055 -0.053220484
000060 b5 1e 06 3c 56 11 21 bd 65 16 4c 3d e5 62 1f 3c
       0.008186032 -0.039323173 0.049826045 0.009728168
000070 fd cc aa 3d ca 49 6d 3d 43 31 4e bd d0 5b dd 3a
       0.0833988 0.0579317 -0.05033995 0.0016888324
000080 5c c7 bf 3c 89 16 ec bc 86 9c 20 3d 4c 88 05 bd
       0.023410492 -0.02881934 0.039211772 -0.032600686
000090 da ca 1c bd 7a 07 cf 3c 98 d1 92 bd 90 3c d2 3c
       -0.03827939 0.02527212 -0.07168883 0.025663644
0000a0 7a f5 c4 3c 49 89 9b 3d c9 0c d5 3b e3 8d 29 bc
       0.024042834 0.075945444 0.0065017683 -0.01034877
0000b0 8a 4b 38 bd bc 21 06 3d 44 ed 18 bc b9 36 ca 3b
       -0.044993915 0.032747015 -0.009333912 0.006171074
0000c0 5c b6 15 3d 16 fc 88 bc 11 2c cc bc 85 76 3f 3d
       0.036550865 -0.016721766 -0.024923356 0.04674389
0000d0 90 76 51 bc 81 a8 b4 3d b0 01 52 3c 1e 62 c3 bb
       -0.012784615 0.08821202 0.012817785 -0.005962624
0000e0 cb ab 4c bd b4 59 84 3d b6 dd 04 3c af c4 9d 3c
       -0.049968522 0.06462422 0.008109501 0.019258825
0000f0 25 07 2e bd 3b 95 8a 3d 6f 58 3e 3d 1c 7d ad 3d
       -0.042487282 0.06766745 0.046471056 0.08471128
000100 be 1a b0 3d 62 8f 45 3d d8 66 65 3c 84 7c e6 3c
       0.08598851 0.048232444 0.014001571 0.028135546
000110 92 d1 5a bd 35 d2 d2 bc f1 2f a2 bc f9 45 99 bd
       -0.053422518 -0.025735 -0.01979825 -0.07484049
000120 47 39 ce bc bb 2e 51 3d 87 21 12 3d 59 a2 8b bc
       -0.025173796 0.051069956 0.035676505 -0.017045187
000130 4d 52 36 bc 42 2a a6 3b c6 f2 0c 3b 48 26 8c 3c
       -0.0111280205 0.0050709555 0.002150701 0.017108098
000140 ad eb 90 bd db 43 1f bc b5 5f 46 bd d0 5b d6 bc
       -0.070762016 -0.009720768 -0.048431117 -0.026166826
000150 00 88 e5 3c bc 4f 27 bd f4 3b 87 3d eb a7 ed bc
       0.028018951 -0.040847525 0.06603232 -0.029010734
000160 a7 2c 08 3d 98 1d f6 bc fa 02 85 bc ce 37 61 bd
       0.03324571 -0.030043408 -0.01623677 -0.05498486
000170 4b 47 50 bd da 3e c9 3a 18 ef 20 bc 8a 55 15 3c
       -0.05084924 0.0015353814 -0.009822629 0.009114632
000180 dc 2c 24 3c 00 1d 90 bc 74 9c 49 bd 76 b5 81 bd
       0.010020461 -0.017591953 -0.04922147 -0.06333439
000190 a8 d3 0e 3d 20 35 30 bd 63 d1 19 bd a0 66 38 bd
       0.03486982 -0.043019414 -0.037553202 -0.045019746
0001a0 32 41 db 3c 5f 2b 2d bd 16 29 35 3d bc 15 09 bc
       0.026764486 -0.04227769 0.044228636 -0.008366998
0001b0 fb 0d d2 3c 4e 8a c7 bc 3c 46 82 bd 4f 0a c2 3c
       0.025641432 -0.024357941 -0.063610524 0.023686556
0001c0 74 f3 ef bc 9a 39 74 3d 99 70 12 3d b1 e7 4c 3d
       -0.029290892 0.059625246 0.035751913 0.050025646
0001d0 17 8d 2b 3d 29 0e 65 bd 94 02 c1 bc 1e a5 19 bd
       0.0418826 -0.055921707 -0.0235608 -0.037510984
0001e0 43 30 83 bd 1a 5f c5 3c c1 2b 69 bc 2b 21 c8 3c
       -0.064056896 0.0240932 -0.014231623 0.024429878
0001f0 fc 7f 8b 3c 56 ce 48 3c 9f a0 c1 3c 9f ff 80 3c
       0.017028801 0.012256226 0.02363616 0.01574689
000200 a8 c4 33 bd 5f cd da 3c 50 31 af 3c c8 c3 87 bc
       -0.043888718 0.026709257 0.021385819 -0.016572848
000210 9d 8c bd bc 7e aa 89 3c 70 bf 83 bd 9a 1a 0e bd
       -0.023138339 0.01680493 -0.06432998 -0.034693338
000220 9e 25 91 bd 1d 60 00 bb f5 56 e8 bc ff 32 d9 3c
       -0.07087253 -0.0019588538 -0.028361777 0.026513575
000230 c0 fd 93 3d b1 8c 41 3c 61 f1 84 bd bb d4 13 bc
       0.07226133 0.011813329 -0.06491352 -0.009022887
000240 53 16 4b 3d 9f 9d 85 bd a0 d5 18 3d 66 47 5f bd
       0.049581837 -0.065242045 0.037313104 -0.05451145
000250 50 ac 52 3c 0b 90 75 bd 91 f1 28 3d c2 34 f5 3c
       0.012858465 -0.059951823 0.041246 0.029932383
000260 e7 5a 02 3c 52 5b 86 bd d8 6d af 3d 74 7a 04 bd
       0.007956243 -0.06560387 0.08565873 -0.032343343
000270 0e 88 87 bc 27 30 18 3d eb 99 a7 3d 36 1e 0e 3d
       -0.016544368 0.037155297 0.081836544 0.03469678
000280 9f ae e0 3b 90 16 5b bd 12 5d 0d 3d 0c 2d 5c 3c
       0.006856754 -0.053488314 0.034512587 0.013438474
000290 6e 91 bb bc 5e 54 4d 3b 91 42 5e bb c4 1a a4 bc
       -0.022896495 0.0031330804 -0.0033914188 -0.020032294
0002a0 4c 52 dc 3b 90 09 73 3d 68 f1 03 bd 49 8b dc 3c
       0.0067236777 0.05933529 -0.032212645 0.026921885
0002b0 53 61 52 bd 86 3f 92 3c 20 25 90 ba 8a 0d ee bc
       -0.051362347 0.017852556 -0.0010997392 -0.02905919
0002c0 f8 6b 13 3d 57 b6 4d 3d 59 19 04 3d da 6c 61 3d
       0.03599164 0.05022272 0.032250736 0.05503545
0002d0 a1 f5 98 bd 78 79 90 bc b1 d7 66 bd 81 ab fc bc
       -0.07468725 -0.017636046 -0.056358043 -0.030843498
0002e0 42 76 b1 bd cd df 66 3d 69 84 81 3d ef eb 97 bc
       -0.08665134 0.056365777 0.06324083 -0.01854512
0002f0 be b6 85 bd fa 59 89 3d 53 0d a4 bc dd 11 37 bc
       -0.06528996 0.06706615 -0.020025885 -0.0111736925
000300 c3 12 fc bc 27 bb 8e 3d 0f 53 bd 3c 29 3b 06 bd
       -0.030770665 0.0696929 0.023110894 -0.032771263
000310 fd 51 c3 3c 5d 1d a6 bc f5 57 12 3c e9 64 a3 3d
       0.023842806 -0.020277673 0.008932103 0.079782315
000320 5f 9c 0f 3d 0a 2a 7e bc 7b c6 3f bb 0c 70 7a 3d
       0.035061236 -0.015512953 -0.002926259 0.061142012
000330 64 a0 39 bd e6 1d 8c 3b c3 d1 26 3d 75 d0 99 3d
       -0.045318976 0.004276025 0.040727388 0.07510463
000340 35 f8 07 3d f0 f7 26 bd 8a 05 f7 3c 45 e5 88 bd
       0.033195693 -0.040763795 0.030154008 -0.06684355
000350 56 67 18 3d 50 59 5f bd b8 18 58 3d d1 bc 10 3d
       0.037207924 -0.054528534 0.05275795 0.03533632
000360 ce 4e ed bb be f0 32 3d b6 74 b4 bc 4e a6 95 bd
       -0.0072420603 0.04368662 -0.022028308 -0.07307111
000370 4a 20 0d bc b2 ac 62 3d 8f 05 2d 3d 18 97 43 bd
       -0.008613655 0.055340476 0.04224163 -0.047751516
000380 95 35 8e bd a8 ad 6a 3d 8f 3d ae ba f3 74 ae 3c
       -0.06943814 0.057294518 -0.0013293492 0.021296
000390 a8 14 af bb 78 eb 51 3d cc 86 b1 bc 1b d2 ad 3c
       -0.0053430386 0.05124995 -0.021670721 0.02121835
0003a0 07 d1 3d 3d 77 56 1b bd 2e 75 07 bd fe f6 eb bc
       0.046341922 -0.037924256 -0.033070736 -0.028804298
0003b0 39 b8 ba 3a a2 17 09 3b e2 28 50 b9 d1 cd 9a bd
       0.0014245576 0.0020918627 -0.00019851656 -0.075587876
0003c0 62 c7 d0 3c 03 87 ad 3d 06 1f 6a bc 1e 4f a7 bc
       0.025485698 0.08473017 -0.014289623 -0.020423468
0003d0 69 ab 86 bd 20 e2 0e 3d 54 b9 26 3d 98 b4 4b 3c
       -0.06575663 0.03488362 0.040704086 0.012433194
0003e0 30 eb 97 3c 80 05 24 3d 03 50 25 bd 9a cf aa 3b
       0.018544763 0.040044308 -0.04035951 0.0052127363
0003f0 8b a7 a3 bd 12 8d 98 3c 41 50 56 3c 64 53 a1 bd
       -0.07990941 0.018621955 0.013080657 -0.078772336
