Pytorch_Bootcamp/Section 7/my_iris_model.pt (torch, 2519 bytes, 6 tensors)

fc1.weight f4 [8, 4]
0	0x3df8392e	0.12120281
1	0xbee08da1	-0.43858054
2	0xbeec860d	-0.46196023
3	0xbd334fa4	-0.043777123
4	0xbec62908	-0.3870318
5	0x3da27df0	0.07934177
6	0x3e17a160	0.14807653
7	0xbef444da	-0.4770878
8	0x3ebe76e1	0.37200072
9	0x3db77d25	0.08959416
10	0x3f13b858	0.5770316
11	0xbd404c71	-0.0469479
12	0x3f436871	0.7633124
13	0x3f262aad	0.6490887
14	0xbee1ac8f	-0.44076964
15	0xbfae2d09	-1.3607494
16	0x3eb3ad74	0.35093272
17	0xbf255375	-0.6458047
18	0x3f514bd8	0.81756353
19	0x3f7312c2	0.949505
20	0x3ef1c84a	0.4722312
21	0x3f71d244	0.94461465
22	0xbf3faefa	-0.7487637
23	0xbf93a033	-1.1533264
24	0x3e2898a8	0.16464484
25	0xbde40d70	-0.111353755
26	0xbed7baec	-0.42134798
27	0xbeb5f058	-0.3553493
28	0xbea3649c	-0.31912696
29	0x3e136990	0.14395738
30	0xbeb2ff38	-0.3496034
31	0x3e6982e4	0.22803837

fc1.bias f4 [8]
0	0x3e3e63e6	0.18592796
1	0xbe4fbc1c	-0.20286602
2	0x3f2baa10	0.6705637
3	0x3f463431	0.7742339
4	0xbe279b8f	-0.16367935
5	0x3f343a00	0.70401
6	0xbe9fdcea	-0.31223232
7	0x3ec190f0	0.3780589

fc2.weight f4 [9, 8]
0	0xbe5ea13a	-0.2174119
1	0x3da82c21	0.08211542
2	0x3dd486d9	0.10377283
3	0xbeb4d6a6	-0.35320014
4	0xbed63f8f	-0.41845366
5	0x3dcd23a0	0.100165606
6	0xbeb2e58a	-0.3494075
7	0xbe871c11	-0.263886
8	0x3e3106f8	0.17287815
9	0xbdf2bfc5	-0.118529834
10	0x3f55b05a	0.83472216
11	0xbdc0b190	-0.09408867
12	0x3f11759d	0.5682009
13	0xbf2beb69	-0.6715608
14	0x3d8f2e40	0.06991243
15	0xbea73170	-0.32654905
16	0xbeb58543	-0.35453233
17	0xbe8b128d	-0.2716259
18	0x3e09fef7	0.13476168
19	0xbf111b4e	-0.5668229
20	0x3f24a37c	0.6431196
21	0xbf470142	-0.77736294
22	0x3e9c0a27	0.30476496
23	0xbe572c89	-0.21013083
24	0xbd96e8a9	-0.07368595
25	0xbd7892b4	-0.060686782
26	0x3e3558f8	0.1770972
27	0xbd2b130c	-0.04176621
28	0xbe079bd6	-0.1324304
29	0xbdf29234	-0.11844292
30	0xbe99b099	-0.30017546
31	0xbde6f0f4	-0.11276427
32	0x3e01bb5d	0.1266913
33	0xbe43c6a5	-0.19118746
34	0x3df0b1b7	0.117526464
35	0xbf3b1e89	-0.7309347
36	0x3f4e363d	0.8055151
37	0xbe9e7f17	-0.30956337
38	0xbe5049e8	-0.20340693
39	0x3c3a9ef6	0.011390438
40	0xbca1479c	-0.019687466
41	0x3d80614e	0.062685594
42	0xbe6b4676	-0.22976097
43	0xbe61de4c	-0.22057456
44	0xbd54b525	-0.051930565
45	0xbe8b2bbe	-0.2718181
46	0x3d214742	0.039374597
47	0xbe391707	-0.1807519
48	0xbe83af05	-0.25719467
49	0xbc8eea53	-0.017445719
50	0x3ea35ee8	0.31908345
51	0x3d9bed9b	0.07613679
52	0x3f4ae7a5	0.7925971
53	0xbf13e877	-0.5777659
54	0xbde24203	-0.11047747
55	0xbd7fb836	-0.062431537
56	0xbe04fce2	-0.12987092
57	0xbeaf947c	-0.34292972
58	0x3f2092d0	0.6272402
59	0x3f042497	0.5161833
60	0xbe3e6a38	-0.18595207
61	0x3f6a6dfb	0.91574067
62	0xbeb46620	-0.35234165
63	0x3e9ffa81	0.31245807
64	0xbeacd317	-0.337548
65	0xbe552c37	-0.20817648
66	0x3dfb530e	0.12271701
67	0xbe2424fa	-0.1602973
68	0xbe35360e	-0.17696401
69	0xbe9f3d8f	-0.31101653
70	0x3ddd306d	0.10800252
71	0x3e91ee49	0.2850211

fc2.bias f4 [9]
0	0x3c93cc18	0.018041655
1	0x3f0294cb	0.5100829
2	0xbf2cde97	-0.67527145
3	0xbee30d54	-0.44346106
4	0xbf1182ed	-0.568404
5	0xbd12de04	-0.03585626
6	0x3c83dd57	0.016096754
7	0x3ef50524	0.47855484
8	0xbceb23a9	-0.028703528

out.weight f4 [3, 9]
0	0xbe0e18c0	-0.13876629
1	0xbf06e165	-0.52687675
2	0xbe20b8ea	-0.15695539
3	0xbd19305b	-0.03739963
4	0xbf3c95f7	-0.7366633
5	0x3e681a43	0.22666268
6	0xbf0ac74a	-0.5421034
7	0x3f226626	0.63437116
8	0x3e9497df	0.29022118
9	0x3dcb256c	0.09919247
10	0x3f022afb	0.50846833
11	0xbf73be7a	-0.9521252
12	0xbe09ce88	-0.13457692
13	0xbf17ab28	-0.5924554
14	0x3e8b2fb0	0.2718482
15	0x3ec1182d	0.37713757
16	0x3db98937	0.09059375
17	0x3e5255ab	0.20540492
18	0xbe46173e	-0.19344804
19	0x3e7fc708	0.24978268
20	0x3f21b590	0.6316767
21	0xbd18b3c3	-0.03728081
22	0x3f320515	0.69539005
23	0xbea4d2e6	-0.32192153
24	0x3f457fdb	0.77148217
25	0xbf808faf	-1.0043849
26	0xbdb3c3c7	-0.08777576

out.bias f4 [3]
0	0x3f1260d6	0.5717901
1	0xbe8da75a	-0.27666742
2	0xbf1a9fea	-0.6040026
