Pytorch Tutorial Youtube/14 - Convolutional Networks/cnn.pth (torch, 250951 bytes, 10 tensors)

conv1.weight f4 [6, 3, 5, 5]
000000 fa cd 20 3e 3a 6e 7c 3d bf 2c 2d 3e 5d 17 fa 3c
       0.15703574 0.061628558 0.169116 0.030528719
000010 28 0f b4 3d 0e 06 6b bd 0b 5c 15 3e 99 1d 07 3e
       0.08791953 -0.05737882 0.14585893 0.13194884
000020 8f 7b a9 3d 16 01 f3 3d f9 8b 01 3e 50 5f 87 bd
       0.0827552 0.118654415 0.12651052 -0.06609976
000030 8d e0 ec bc 02 9b 01 3e 08 f7 b5 bd ef d5 b7 3d
       -0.028915668 0.12656787 -0.08885008 0.089763515
000040 30 56 bf 3d 92 95 3c 3d 69 82 64 bc c3 ae 0d 3d
       0.09342611 0.04604108 -0.013947108 0.034590494
000050 71 b0 ac bd d3 75 93 bd 38 6a b7 bd 14 51 77 3d
       -0.08432091 -0.072002076 -0.089558065 0.060380057
000060 c2 54 bb 3d 85 04 bf 3d 44 92 1f 3d fa 69 af 3d
       0.09147026 0.09327034 0.03895785 0.08565135
000070 8a 4c b0 3d b1 17 b2 3d 09 ed 44 3d f8 29 aa 3d
       0.08608349 0.08695925 0.048077617 0.08308786
000080 1d 70 ad bd c7 24 c6 3d 59 6e 3e 3d ab 11 a2 3d
       -0.084686495 0.096749835 0.046491954 0.07913526
000090 af 5b 16 3d 71 cb d0 3d 0a f1 ec bb cd 59 99 bd
       0.03670853 0.10195053 -0.0072308825 -0.07487831
0000a0 5b b2 a4 3d e9 3a b9 3c ac 6b 6d bc 31 81 37 3d
       0.08041831 0.022611098 -0.014491003 0.04480094
0000b0 40 cf 1b 3d ea ab c4 bd 2c d1 85 ba ea fb ce bd
       0.038039446 -0.096031025 -0.0010209433 -0.101066425
0000c0 b8 6c fb bd c8 26 a4 bd 25 34 57 3e 2d 2c e1 3c
       -0.12276596 -0.080152094 0.21015985 0.027486885
0000d0 5d c3 bd 3d 8e 54 b3 3d 51 24 0e 3e 8d 5b 13 3e
       0.09265778 0.08756362 0.13881041 0.14390393
0000e0 fb 44 ef 3d 08 fb 57 3e 3c ea 2f 3e 17 5e 00 3e
       0.11683079 0.21091855 0.17179197 0.12535892
0000f0 b5 44 17 3e 74 b2 bf 3c 97 98 6e 3d 2d b3 8e bb
       0.14772303 0.023400523 0.05825099 -0.0043548555
000100 34 2e 98 3d 22 a1 06 bd 19 23 19 3e a3 b2 03 3e
       0.074306875 -0.032868512 0.14954795 0.12861113
000110 70 3c c7 3d 30 50 06 bd 1b f8 22 3e 8d 85 ab 3d
       0.097283244 -0.032791317 0.15914957 0.08375082
000120 2b 3c da bb 32 cb d2 3d 2b 3f 76 3d a7 9c 95 bc
       -0.0066600046 0.10292663 0.060118835 -0.018263174
000130 e0 12 94 3c 1b 6f bb bb cb 83 1e be b2 d3 ca bd
       0.018075407 -0.005720032 -0.15479963 -0.09903659
000140 6a 2e 5d 3c 3c 55 bb bd a6 81 a8 3c ff cf 04 be
       0.0134998355 -0.091471165 0.020569634 -0.12969969
000150 a2 7c ea 3c 84 7c 79 bd 61 ac ff 3c 97 29 03 3d
       0.028623883 -0.060909763 0.031210126 0.032022085
000160 ff 18 0b 3d a9 24 99 bd 92 ed 96 bd e4 ac 3c 3d
       0.033959385 -0.074776955 -0.07369532 0.04606332
000170 20 08 9f bd 5c 7e 01 3d dc 8b 16 be 07 36 27 be
       -0.077652216 0.031614646 -0.1470179 -0.16329204
000180 a9 31 28 bd 76 ba 91 bd 94 8f b4 3b c3 bb 41 3d
       -0.041062985 -0.07115643 0.00551028 0.047298204
000190 91 1d 33 3d 32 b7 a9 3d c1 f9 a8 3d ee b5 1d 3c
       0.04372937 0.08286895 0.08250762 0.009625895
0001a0 4a 71 9e 3d 46 47 02 be ff ff 6a 3d 98 61 62 3d
       0.07736452 -0.12722501 0.057373043 0.055268854
0001b0 70 87 a2 bd a8 d9 14 be 81 a6 1b 3d 20 f3 a7 bd
       -0.07935989 -0.14536154 0.038000587 -0.08200669
0001c0 d6 03 02 be 18 69 a5 3d 61 5e 88 bc e2 c8 ed ba
       -0.12696776 0.08076686 -0.016646566 -0.0018141533
0001d0 72 6c 1d bc 45 9e 4b 3d 23 5d 00 3d 14 ae d4 bd
       -0.009608375 0.049711484 0.031338822 -0.10384765
0001e0 04 de 74 bc 4d a4 20 bb f2 c3 66 bd 22 4f d2 3c
       -0.014945511 -0.0024511993 -0.05633921 0.0256725
0001f0 b8 06 86 3d e1 ad 81 3d b9 47 44 3e 1d 37 f3 3d
       0.0654425 0.06331993 0.19167985 0.118757464
000200 1e 62 e8 3d 7d 7d 33 bc 10 34 d3 3d b6 6c 25 3d
       0.11346839 -0.010955212 0.103126645 0.040386878
000210 1e 5a c4 3d bd 41 87 3d 18 5f a1 bc ec b8 b1 3d
       0.09587501 0.066043355 -0.019698665 0.08677849
000220 56 df 48 3d e3 cc 1b 3e 67 81 0c bc 62 1d a0 3d
       0.049041115 0.15214877 -0.008575774 0.07818104
000230 49 a8 20 3d 81 c5 f3 3d 6b 1a 3b 3e b8 74 17 3e
       0.03922299 0.11902905 0.18271796 0.14790618
000240 4e 26 2e 3d ae d9 0d 3e 6e 7f 15 3e 21 f6 2c 3e
       0.042517 0.1385257 0.14599392 0.16890766
000250 3e 14 2a 3e 90 31 98 bc e2 18 0c 3e 8a bd 2e 3e
       0.16609284 -0.01857832 0.13681367 0.17064491
000260 e5 aa 7b 3e c3 4f 75 3e d6 f7 2f 3e 58 b2 3d 3e
       0.2457691 0.23956208 0.17184386 0.18525064
000270 e3 55 c7 3d 2e 26 f0 3d df 47 41 3e a1 97 3f 3e
       0.097331785 0.11726032 0.18875073 0.18710186
000280 b6 48 87 bd c8 8b 94 3d 63 f1 02 3e ba 67 c2 3c
       -0.066056654 0.07253224 0.12787394 0.023731101
000290 ae 65 fa bd f1 63 00 be 1f 14 88 3d 59 a9 94 3d
       -0.12226425 -0.12538125 0.06644463 0.07258863
0002a0 90 55 fc bc d3 87 a3 bd b1 97 db bd d8 c4 2d be
       -0.030802518 -0.07984891 -0.10722292 -0.16969621
0002b0 bd 02 15 be 86 e9 74 bd de 72 48 be 50 c5 bb bd
       -0.14551826 -0.059793018 -0.19575068 -0.09168494
0002c0 3c af 8e bd 6c 39 aa bd ff ee 28 3d 74 91 e0 3d
       -0.06967017 -0.083117336 0.04124355 0.10965243
0002d0 2d 23 09 be b0 b0 95 bd 23 f9 6f bd 8c 6c 8a 3d
       -0.13392325 -0.07309091 -0.058587205 0.06758985
0002e0 b8 6a 4f bd 16 ca a5 3c e5 4d 55 bd e2 35 d5 bc
       -0.050638884 0.020237964 -0.05207624 -0.02602667
0002f0 c0 f2 52 3d 47 5f 44 be bb de 7d bd 5d b3 59 be
       0.051501036 -0.1917697 -0.06197999 -0.21259828
000300 b5 d0 07 be fc c2 f2 bd 21 71 25 bc 9d a6 cf bd
       -0.13263209 -0.118535966 -0.010097773 -0.10139201
000310 70 d8 02 be 1b 6d 91 3b 62 1b af 3c c0 d4 ab bd
       -0.12777877 0.004438055 0.021375362 -0.08390188
000320 5b 9c 13 3e 0c 30 ff 3d 22 12 f0 3c b8 3b 2b 3e
       0.14415114 0.12460336 0.029305521 0.16722
000330 08 09 ce 3c 23 2d 67 38 d9 c9 dd bd 14 24 a0 3d
       0.02515079 5.511673e-05 -0.10829515 0.07819381
000340 72 fc a1 bc 72 71 7f b9 4a 59 94 3c 53 82 5a bc
       -0.019773696 -0.00024360957 0.018108983 -0.013336736
000350 1d 6c 05 be db 9c 74 bd 15 67 13 bb f3 75 74 bd
       -0.13029523 -0.0597199 -0.0022491862 -0.059682798
000360 07 37 1e 3d f1 c9 b5 bd 2f fc bf 3c 6e 6d 42 3c
       0.038626697 -0.08876408 0.02343568 0.01186691
000370 2c 0b bf 3c d5 65 43 3d e5 94 bd bd 98 47 d1 3d
       0.023320757 0.047704536 -0.09256915 0.102187335
000380 7f cc 3f 3d 82 09 38 3e 75 e9 4e 3e 48 1c f7 3d
       0.046825882 0.17972377 0.20206244 0.12065941
000390 23 41 5b 3e 4f fb a7 3d e2 51 40 3e 69 df 09 3e
       0.21411566 0.0820223 0.18781236 0.1346413
0003a0 b1 a9 45 3e 3f 7a 07 3d e4 33 01 3e 75 04 1a 3e
       0.19303013 0.033075567 0.12617451 0.15040763
0003b0 30 3c 3a 3e 6c 8b ac bd eb cd cf bc 84 7f b2 bd
       0.18187022 -0.0842503 -0.025366744 -0.08715728
0003c0 a7 f6 20 bd 19 b3 cd 3b b1 ad 30 be af a9 f0 bd
       -0.039297726 0.0062774536 -0.17253758 -0.117511146
0003d0 a7 0d 76 bc c5 ac 16 be 90 2d 4e be 68 5a cf bd
       -0.015017903 -0.14714344 -0.20134568 -0.101246655
0003e0 55 24 58 be ce 90 f5 bd 84 3c 89 bd 88 1c 84 bc
       -0.2110761 -0.1199051 -0.067009956 -0.016126886
0003f0 94 53 07 bd 6f ff 8a bc 7e c8 a2 3c e4 ad 03 3d
       -0.03303869 -0.016967503 0.019870993 0.032148257

conv1.bias f4 [6]
000000 27 08 6c 3e a1 d1 4d 3d a8 43 5a be 3d 44 f3 bc
       0.23049985 0.050248746 -0.21314871 -0.029695624
000010 45 df a4 3d c4 5c df 3e
       0.08050398 0.43625462

conv2.weight f4 [16, 6, 5, 5]
000000 eb 51 7b 3d 3d b6 74 bc 7b 42 f7 3b 33 af a4 3d
       0.06135742 -0.014936027 0.007545767 0.08041229
000010 81 38 5a 3d fd de 20 bd d7 9e fe bb 3c 0f 4e 3d
       0.053276543 -0.03927516 -0.0077704 0.050307497
000020 19 29 80 3c 55 04 32 3d fd be 05 bd 96 64 7a bd
       0.015644597 0.043461163 -0.032652844 -0.061131082
000030 8c da fb 3c 22 d9 86 bc 31 bb 4e bd 53 80 93 bd
       0.03074386 -0.016460959 -0.05047149 -0.0720221
000040 77 04 9c bd 85 78 99 3d 2e 67 32 bc 2a 85 6a bd
       -0.07618039 0.074936904 -0.010888858 -0.0572559
000050 15 0b 6b b9 e7 ce 34 bc 7c 27 55 bd f4 64 5a bd
       -0.00022415475 -0.0110356575 -0.05203961 -0.053318933
000060 cc cc ec 3c 1c a5 bc bc 70 da 42 3d c8 ac 27 bd
       0.028906249 -0.023027949 0.0475716 -0.04093626
000070 4e e1 cd bb f8 1a 98 bd b1 3d 1f bc e6 84 44 3d
       -0.006282962 -0.07427019 -0.009719298 0.047978304
000080 23 27 17 bd 36 30 fb bc d6 7b 18 bc 59 c8 24 ba
       -0.036902558 -0.030662637 -0.009306869 -0.00062859576
000090 3b bd d0 bd 26 b9 cb bd c1 18 43 3c a9 9d 3d bd
       -0.10192343 -0.09947424 0.011907757 -0.046292935
0000a0 69 5c fe 3c df ca bf bd d1 d0 88 3c 2b 62 cd bd
       0.031049924 -0.093648665 0.016701134 -0.1002849
0000b0 c7 55 08 3d 33 e2 5f 3c 76 3b 9f bd 89 8f a9 bd
       0.03328493 0.01366477 -0.07775013 -0.0827933
0000c0 54 8d a2 bd 6b 22 4c bd 3a 23 9b bc bf ee 63 3d
       -0.079371125 -0.04983751 -0.018937696 0.055647608
0000d0 09 e9 6a 3d ae 12 b5 3d 34 d8 21 3d cd c5 7d bd
       0.057351146 0.088414535 0.039512828 -0.061956216
0000e0 a7 b2 93 bd 50 5f be 3d 39 62 68 bd 55 a0 10 bd
       -0.072118096 0.09295523 -0.056734297 -0.035309155
0000f0 0d 91 92 3b 9b 87 10 3d d2 ec de 3d 78 a3 13 bd
       0.004472858 0.035285573 0.10885014 -0.036044568
000100 69 3f 9c 3d 67 90 99 3d 9d bf ad 3d 93 ff 09 bc
       0.07629282 0.07498246 0.08483813 -0.00842275
000110 4c ed c4 3d 3b 51 7f 3c e5 20 ff 3c 68 1a d9 3c
       0.09615573 0.015583332 0.031143615 0.02650185
000120 5b 0b 11 3c 0b b3 11 bb 16 8c 98 3c 16 a3 b1 bc
       0.008852805 -0.0022231962 0.018621486 -0.02168421
000130 48 9a 9a 3c cb db 9f 3d 2e 57 18 bc 5c 7f e8 3d
       0.018872395 0.07805594 -0.009298129 0.11352417
000140 8b f1 4e 3d 9b d7 90 bd 33 10 b4 3c c2 08 8d 3d
       0.050523322 -0.070723735 0.02198038 0.06886436
000150 dd ce c3 3c c4 b6 c7 3d a6 a1 07 3e 83 50 23 3e
       0.023902351 0.09751657 0.13245258 0.15948682
000160 0a 94 3a 3e 3c 72 09 3e 4e 59 81 bc ae f9 88 bb
       0.18220535 0.13422483 -0.015789654 -0.0041801548
000170 14 ca e7 3d e1 17 16 bc dc 1a 91 3b 9d 1f 6e bc
       0.1131784 -0.009160967 0.0044282507 -0.014533904
000180 6e 24 b0 3d a4 43 67 3d 44 87 c2 bd a8 fa b2 bd
       0.086006984 0.05646099 -0.09498456 -0.08739215
000190 c4 92 d5 3c 60 bd 86 3c 93 5d 99 bd 56 b8 0c 3d
       0.02607096 0.016447723 -0.07488551 0.034355484
0001a0 53 54 4b 3c 86 40 a2 bd 90 c8 d9 bd 70 ad 47 ba
       0.012410241 -0.07922463 -0.106339574 -0.0007617092
0001b0 fe c3 85 bc 00 27 02 bd 8a 3d 55 bd 11 2a 6c bc
       -0.016328808 -0.031775475 -0.05206064 -0.014414326
0001c0 19 ee 15 3d b3 cc a6 3d da ba d8 bb 0c 83 83 3d
       0.03660402 0.08144512 -0.0066140713 0.064214796
0001d0 50 d5 8f 3d 49 75 67 bb a5 69 48 bd 08 b6 41 bd
       0.07023108 -0.003531771 -0.048928875 -0.04729274
0001e0 50 e2 08 bd f1 5d f5 bc 81 bb b4 3c f1 27 cb bb
       -0.033418953 -0.029952021 0.022062065 -0.0061998297
0001f0 54 ec e5 bc cb ea 67 3d b2 ed a1 3d 56 02 88 3d
       -0.028066792 0.0566204 0.07906665 0.066410705
000200 de 7b ba 3d 96 84 41 3d f4 17 ff 3c 68 9b ef 3d
       0.09105657 0.047245584 0.031139351 0.11699563
000210 db 4c c9 3d 32 7b b5 3d 3e 3a a8 3d 28 37 af bc
       0.09829112 0.08861388 0.08214234 -0.021388605
000220 11 24 96 3d 2c b7 09 3d a6 19 a1 3d 3f 59 1b bc
       0.07331098 0.033621952 0.0786622 -0.009481727
000230 dc bd e4 3c 4a 13 04 3e 52 20 d9 3d be d1 07 3d
       0.027922563 0.12897983 0.10601868 0.03315901
000240 5d 4a a0 3c 6e 28 71 3d a0 57 14 3d 10 f2 b1 3d
       0.01956671 0.058876447 0.03621638 0.08688748
000250 78 aa 68 3d e4 d5 17 3e eb 89 54 bd 80 88 09 be
       0.056803197 0.14827687 -0.05188934 -0.13430977
000260 79 4c 83 bc e5 b3 12 3d c6 36 f9 3c f3 68 c0 bd
       -0.016027676 0.035816092 0.030421626 -0.093950175
000270 55 87 f0 bc db ed f5 3c a3 db bb 3d 80 92 b3 bc
       -0.029361406 0.030020645 0.09172752 -0.021920443
000280 91 d3 b8 bd 70 32 f7 bc d5 dc 5c 3b ba 6d 66 3d
       -0.09024728 -0.030175418 0.0033700962 0.056256987
000290 02 28 38 3d c4 e0 da bd 7f ec 1f bd 72 30 a4 3d
       0.04496003 -0.10687402 -0.0390439 0.08017053
0002a0 14 1c e2 3d d9 37 b4 3d 98 fd c4 bd 24 54 a6 bd
       0.11040512 0.087997146 -0.09618682 -0.08121517
0002b0 16 9a 13 bc d6 1b cf bc 3d cc ed 3d cf d0 93 bd
       -0.009008905 -0.025281828 0.11611221 -0.072175615
0002c0 46 8f 88 3d a5 ea 82 3d 46 63 93 3d 37 5f d1 bc
       0.06667952 0.06392411 0.07196669 -0.025558097
0002d0 cd 0f 82 bd 36 7a 8c bd 80 24 f3 bc a8 c3 ef 3d
       -0.0635067 -0.068592474 -0.02968049 0.1170724
0002e0 e1 b5 a9 3c 94 31 f8 3b 2d 36 8b bc 07 24 af bc
       0.02071661 0.0075742695 -0.016993606 -0.021379484
0002f0 7b 03 d4 3d 2e 5d 88 3d 48 11 21 bd 07 76 e2 3b
       0.10352226 0.066583976 -0.03932312 0.0069110426
000300 b0 50 a1 3b 8f ee 26 b9 f6 aa 63 bc b7 ee 41 3d
       0.004922949 -0.00015919864 -0.013895741 0.047346797
000310 24 81 0e bd 2f af 45 bd 86 20 bf 3d 3a b3 8a bc
       -0.034791127 -0.04826277 0.09332375 -0.016931165
000320 35 0c 21 3d 48 b0 1e 3d d7 07 4e bc e0 e8 49 3d
       0.039318282 0.038742334 -0.012575111 0.049294353
000330 a2 89 d5 bc 6f 18 c9 3c 55 da 72 bd 97 77 73 3c
       -0.026066605 0.024547784 -0.05929025 0.014860055
000340 03 17 1c 3d 2b 78 ba bc 53 a3 63 bc 6c 6a ae 3c
       0.038107883 -0.022762379 -0.01389392 0.02129098
000350 84 ba 37 bc f5 12 62 3d 8d 37 90 bd 7e 01 01 3d
       -0.011213902 0.05519386 -0.070418455 0.031495564
000360 da ad 84 bd f6 e1 62 3d 2c 75 a8 3b fb 94 9d bd
       -0.06478472 0.055391274 0.005140921 -0.076944314
000370 76 e1 01 3d e9 5c 42 3d c8 7b e0 bc 82 19 e9 bc
       0.031709157 0.047451887 -0.027402773 -0.028454546
000380 81 f2 5f bd 13 47 e0 3d 56 f0 40 3d b1 7b 25 bd
       -0.05467463 0.10951056 0.047104202 -0.040401164
000390 1c c1 bd bc bf b3 6c bd eb 51 0c 3d 2c e5 2a 3d
       -0.02316337 -0.057788607 0.03425781 0.04172246
0003a0 40 9f 74 bc c2 03 e6 3c ea cf c0 bd e5 98 a0 3d
       -0.014930546 0.028077964 -0.094146565 0.07841662
0003b0 27 4d 3e 3d 16 92 61 3d 25 0d 98 bd 6b 56 4e bc
       0.046460297 0.05507096 -0.07424382 -0.012593846
0003c0 5d 4c a8 3d 6c 3d ba bc 49 5b 57 3d d9 8a 06 bd
       0.0821769 -0.022734366 0.05257729 -0.03284726
0003d0 cc 02 9f bd 56 d5 57 3d 29 4d 01 3d 8a 75 f9 bc
       -0.07764205 0.052693687 0.031567726 -0.030451555
0003e0 41 fe 10 bd e7 5a a7 39 25 47 79 3d dd 11 18 3d
       -0.035398725 0.0003192045 0.060858864 0.03712641
0003f0 4a ca b1 bd 84 05 29 3d e8 06 44 3d d5 7b d2 3d
       -0.08681162 0.041265026 0.04785815 0.10277525

conv2.bias f4 [16]
000000 ee 20 c2 ba 86 95 73 bd 23 53 a6 3d 98 8d 84 be
       -0.0014810839 -0.05946877 0.08121326 -0.25889277
000010 b3 9b e3 bd 8b a6 97 3e 18 23 e0 bd ea d5 89 3d
       -0.11113682 0.2961925 -0.109441936 0.06730254
000020 c8 29 09 3e 8f 88 14 3e 92 fc e5 bc 04 1b c5 bc
       0.13394845 0.14505218 -0.028074536 -0.024060734
000030 b6 0d 98 be b8 5b 42 3d ed 7b 3e 3e 0e 61 94 bd
       -0.2969796 0.04745075 0.18601961 -0.07245074

fc1.weight f4 [120, 400]
000000 03 87 21 3d ae 6a 21 bc 33 b3 a9 3c b6 41 d0 3b
       0.039435398 -0.009852095 0.020715332 0.0063554896
000010 21 cf 9e bc 0e db 2c 3d d6 4f 36 3d f4 fd 35 3c
       -0.019385876 0.042201094 0.04450973 0.01110791
000020 99 61 20 3d 28 67 b5 3c 2a 08 b7 bc b4 50 07 bc
       0.039155576 0.022143915 -0.02234276 -0.008258987
000030 9c 5f 00 3d 5a 5d 30 bc a9 bc 38 3d 88 7d 31 3d
       0.03134118 -0.010764444 0.045101795 0.043332607
000040 a3 98 e7 3c 7b b4 27 bc 1f fc 15 bd fa c0 1c 3d
       0.028271025 -0.010235901 -0.036617395 0.038269974
000050 9d c6 84 bb 2a f9 49 bd 1b 39 15 3c 36 a3 d5 3b
       -0.004051997 -0.049309887 0.009107853 0.0065197004
000060 ef ab c9 3c fa 49 11 bd af 08 69 3c 63 7a be 3c
       0.024618117 -0.03547094 0.014223262 0.023251718
000070 7a 8b 28 bd 2d d8 17 3c 94 97 77 bc 16 dd 1f 3d
       -0.04114864 0.009267849 -0.015111823 0.039029203
000080 c0 13 55 bb 1f d0 93 bc 26 af 20 bd db 21 ef 3a
       -0.0032512993 -0.018043576 -0.039229535 0.0018244343
000090 cf 17 88 bc 24 43 e8 3b 3c a0 ef bc 30 2a 3f 3d
       -0.016612915 0.007088082 -0.02925121 0.046671093
0000a0 c9 3e 28 3d bb bb 7d 3c 72 b6 99 3b bf 37 39 3d
       0.0410755 0.015486653 0.0046909386 0.04521918
0000b0 a4 e0 2a bc f7 74 07 3d 2c 4f 3d 3d 32 ef 30 bd
       -0.010429535 0.03307053 0.046218082 -0.043196864
0000c0 2a e1 93 bc 7d ff 52 bb ab e4 41 bc dd 54 46 bd
       -0.018051703 -0.003219574 -0.011834304 -0.048420776
0000d0 d4 ae 15 3d 9d 52 df bc 93 56 d1 3c 96 c4 a6 3c
       0.036543682 -0.027261073 0.025553977 0.020357411
0000e0 b5 0e 9d 3c 12 dd 0b 3d 23 8f 51 ba 1a 57 bd 3c
       0.019172052 0.034146376 -0.00079940463 0.023112822
0000f0 af 84 14 3c ca 21 44 bd 82 5a 41 3c e3 df 81 bc
       0.009064837 -0.047883786 0.011801364 -0.015853828
000100 c3 34 e4 3c 32 94 f1 bc e7 19 3d bd 5d 96 7c 3c
       0.02785719 -0.02948961 -0.04616728 0.015416709
000110 9d 3c be bb 2e 63 46 3c 74 df 30 bd 54 2a c5 3c
       -0.0058055655 0.012108607 -0.04318185 0.024068035
000120 4f a6 23 3d 4f ce 5a 3c 42 ed e8 3c d3 32 04 3d
       0.039953526 0.013354852 0.028433446 0.032275032
000130 c2 43 8f 3a e3 92 e6 3c 0d 7c 09 3d 71 5e 93 3c
       0.0010930228 0.028146213 0.03356557 0.01798937
000140 ab a1 6d bc 3a 21 0f 3d bc 25 5f 3c 34 ea 9c bc
       -0.014503877 0.034943797 0.013619836 -0.019154646
000150 ed a0 da 3c b0 2a 2d bd f0 ff 03 3a 1b 18 24 bd
       0.026688064 -0.042277038 0.0005035391 -0.04006205
000160 f4 e0 31 3d 1b c8 c8 bc b7 35 29 3c 0d 26 3c 3d
       0.043427423 -0.02450948 0.010327748 0.045934726
000170 94 cb 2d 3d a0 e4 ea bc 36 5c ee b9 1a 3d 40 3d
       0.042430475 -0.02867347 -0.000454636 0.04693327
000180 db f5 de 3c c6 9d a7 bc f7 91 6b 3c d3 c0 5b 3c
       0.027216842 -0.020460974 0.014378062 0.013412672
000190 29 a5 aa bb 84 b7 2b bd e2 86 24 3d 86 62 65 bb
       -0.005207677 -0.04192306 0.040167697 -0.0035001351
0001a0 f9 4d 8a bc 09 df 81 3a 3a 66 52 3c 17 c2 e7 3c
       -0.016882883 0.0009908389 0.0128417555 0.028290791
0001b0 ab f7 40 bd 22 1d ca bb ab 98 38 bd 20 5c 19 bd
       -0.047111195 -0.0061680237 -0.04506747 -0.037441373
0001c0 e3 cd 59 bd b1 5e 2b 3d 23 7e 43 bc 44 bc 1f bd
       -0.053174865 0.04183835 -0.011931929 -0.038997903
0001d0 ea 25 2f bd ad 07 ba bc 8b a6 28 3d 7b af 07 3d
       -0.042760767 -0.022708738 0.041174453 0.033126336
0001e0 c5 f0 ed 3c 9f 14 ce bc 6d 8a 3b bd 8f b9 5f 3c
       0.029045472 -0.025156317 -0.04578631 0.01365508
0001f0 08 0c c3 3b ee 09 b7 bc ba 5b 73 bc 28 c4 dd 3c
       0.005952362 -0.022343602 -0.014853412 0.027071074
000200 ea 1a 36 bd b8 da 25 3d b2 14 ea 3b 7f 59 3d bd
       -0.04445926 0.04049179 0.0071435804 -0.04622793
000210 5c 4a ea 3c 7e c3 14 bd f2 8e 9a ba 39 0f 3b bd
       0.02859991 -0.03631925 -0.0011791869 -0.045668814
000220 db f8 a2 bb b4 1a 22 3c 85 63 9c 3c aa 52 9d 3c
       -0.0049735135 0.009894062 0.019090423 0.019204456
000230 db df 68 bb 97 fe 17 bd ec 6a 88 bc 25 2f 1e bc
       -0.003553382 -0.03710803 -0.016652547 -0.009654795
000240 c5 8e 10 3d 4e 76 cd bc c7 03 fc bc 84 23 ad bc
       0.035292406 -0.025080826 -0.03076352 -0.0211351
000250 0f 30 f4 3c af 62 16 bd 9c 17 e8 3c a4 94 91 b9
       0.029808072 -0.036715206 0.02833157 -0.000277673
000260 8e 40 86 bc 98 13 f1 3c 57 51 34 bd 84 b8 1d bd
       -0.016388204 0.029428288 -0.044022884 -0.038506046
000270 dc b6 cc bc 84 f7 8c 3c ac f3 e2 b9 bc 70 14 3d
       -0.024989538 0.017207868 -0.0004328763 0.036240324
000280 d1 4f f6 3c 61 13 aa bc 18 fc 2d 3d d9 95 c5 3c
       0.030067356 -0.020761194 0.042476743 0.024119304
000290 f0 3c 40 bd 85 6b 83 3a df 89 36 bc 9e 43 43 bd
       -0.046933115 0.001002655 -0.0111412695 -0.047671907
0002a0 74 be 34 bd c9 cc 34 3b 63 a7 e7 3c e6 7c 41 bd
       -0.044126943 0.0027587882 0.028278058 -0.047238253
0002b0 e0 1f 3d bd ae 3d e9 3c d9 60 81 bc c3 2e 1c 3c
       -0.046172976 0.028471794 -0.01579325 0.009532633
0002c0 b8 20 37 3d 0a b4 35 bd bd 37 db bc 97 34 2a 3d
       0.044708937 -0.04436115 -0.026759977 0.04155406
0002d0 03 59 fd bc 6e 52 e8 3b 38 17 b9 bc ca a2 7a 3c
       -0.030926233 0.0070899045 -0.02259408 0.015297601
0002e0 96 53 70 3c ba 9a 78 b9 27 1d f1 bc 73 3d 06 3c
       0.014668366 -0.00023708763 -0.029432846 0.008193362
0002f0 23 a0 f9 bc ae b8 d2 3c d5 a9 1e bb c2 a9 79 bc
       -0.030471867 0.025722828 -0.0024210114 -0.015238227
000300 67 8c 41 bd d6 3f 89 3c 5c 13 d5 bc 82 14 48 bd
       -0.04725304 0.016754072 -0.026010208 -0.048847683
000310 b3 db b1 bc 2d 09 ef bc 5c aa 2d bc 19 07 58 3d
       -0.021711206 -0.02917918 -0.010599699 0.052741144
000320 fa 65 18 3b 22 34 4a 3c 12 6b 40 bd ec b3 46 bd
       0.0023254142 0.012341531 -0.04697711 -0.04851143
000330 66 29 af 3c fd 43 b0 3c e1 03 f0 bc 4c 7f b7 3b
       0.021382045 0.021516794 -0.029298725 0.0055998918
000340 2e ef 03 bd 0e ff 7e bc 82 e5 84 3c 3c d8 fc 3c
       -0.03221052 -0.015563739 0.01622272 0.030864827
000350 cd 04 d5 3b 18 bf b3 3a 80 28 c6 3c 80 ee f5 bc
       0.0065008164 0.0013713567 0.024189234 -0.030020952
000360 a1 4b 22 3c 12 e1 ec bc f2 a6 b7 bc 20 5d 4d 3d
       0.009905727 -0.028915916 -0.022418473 0.05013764
000370 3c 8b 22 3d 89 fd c4 3c 3e 23 9d bc 70 e7 80 3c
       0.039683565 0.024046676 -0.019181844 0.015735358
000380 6a 72 49 3d 43 84 20 3d 50 a5 38 bd 8d 41 96 bc
       0.04918138 0.039188635 -0.04507953 -0.018341804
000390 9c 7e d9 bc a0 06 37 3d 9c 91 2e 3d f8 66 86 bc
       -0.02654963 0.044684052 0.042619333 -0.016406521
0003a0 01 5e 3d 3d 41 97 1c bd d2 a2 9c 3b cc 52 2a bc
       0.046232227 -0.038230184 0.004780152 -0.010395717
0003b0 67 30 88 3c 0f 3d dc 38 ad 62 da bc 17 8c a0 bc
       0.016624643 0.000105017905 -0.02665838 -0.01959805
0003c0 24 83 32 bc 27 aa aa 3c c2 7d 29 3d 68 9b c2 bc
       -0.010895524 0.020833088 0.041379698 -0.023755744
0003d0 af c5 9f bc 33 c3 cd bb 75 cf 17 3c c5 6b 32 3d
       -0.019503443 -0.006279373 0.00926577 0.04355981
0003e0 0c a7 a7 ba 49 9e 58 bb b3 e2 a8 3a 92 ed b4 3b
       -0.0012790873 -0.003305333 0.0012884944 0.0055214847
0003f0 b2 07 5e 3c 79 ab b1 3c 2d 24 de 3b bb c1 9d 3c
       0.013551639 0.02168821 0.006779215 0.019257417

fc1.bias f4 [120]
000000 a8 66 8d bc f7 49 ff 3d 9d bd a8 bc ca 4e 7a bd
       -0.017260864 0.124652795 -0.020598227 -0.061110295
000010 14 4b ae 3d 27 94 9f bb 46 00 bd 3d e9 fb 17 3d
       0.08510414 -0.004869956 0.09228568 0.037105475
000020 03 af 69 bc fb 86 40 bd 7e 69 91 3d 6b 54 e4 ba
       -0.014262917 -0.047003727 0.07100199 -0.0017420178
000030 f2 62 ca 3b 0f dc c9 3d f3 a0 af bc 6e ad 0d bd
       0.006176346 0.09856426 -0.021439051 -0.034589224
000040 86 ab 35 3d 97 08 4a bd 34 98 41 bb f9 bc 65 3d
       0.04435303 -0.0493246 -0.0029540183 0.05608842
000050 8d cd ad 3c 02 6b 0c bd 22 7b f2 bb 7b 57 87 bc
       0.021216178 -0.034281738 -0.0073999325 -0.016521206
000060 ef 4c 6c bd 9c 20 86 bd 06 94 d0 bc 9e 29 9a 3d
       -0.057690557 -0.065491885 -0.025461208 0.07527469
000070 d3 21 70 3d e2 17 1c 3d f0 51 14 3c 7e 7f 4e bd
       0.058626007 0.038108714 0.009052739 -0.050414555
000080 6b 2d 29 bd 48 58 d3 bb 20 4b 7f 3c d7 f0 2c bd
       -0.04130308 -0.006449733 0.015581876 -0.04222187
000090 00 d2 03 3d 70 3e 15 3d 7c e6 04 bb 8c 1a 87 bd
       0.032182693 0.0364365 -0.002027898 -0.0659686
0000a0 0a f3 2a 3d 13 ce 84 3d f1 59 82 3d ae 27 ac 3d
       0.041735686 0.06484618 0.06364811 0.08406006
0000b0 14 fa 0d 3d f4 8c 10 bd 10 04 ce bc 59 c1 85 3d
       0.03466232 -0.035290673 -0.025148422 0.06531019
0000c0 ea c8 ae bd 1f 9d 12 bd d9 2c 00 3d 46 45 66 bd
       -0.08534415 -0.035794374 0.03129277 -0.056218408
0000d0 6c 60 3a 3c 86 89 46 3c 73 96 3e bc c6 6b a3 3d
       0.011375528 0.012117749 -0.01163255 0.079795405
0000e0 3c 18 36 3c 07 bc 74 3c 18 26 c6 bd a5 82 11 bc
       0.011114176 0.014937407 -0.096752346 -0.008881246
0000f0 5a bd 39 bc fa 96 df ba 89 3a 91 bc 36 15 a7 bc
       -0.011336649 -0.0017058544 -0.017728107 -0.020395856
000100 b8 70 c2 3d 8f 3e a5 bc 37 03 c5 bc 01 92 28 3d
       0.09494156 -0.020171432 -0.024049385 0.041154865
000110 90 0a fe 3c 28 b4 15 bd 4a 18 a4 bd 4d 2e a0 3c
       0.031010896 -0.036548764 -0.08012445 0.019553328
000120 9a e7 4f bd a6 b7 fc 3c 30 1e 6b 3d 48 21 90 bd
       -0.05075798 0.03084929 0.057401836 -0.07037598
000130 b4 ec ef 3c e4 0b 1b 3c 06 e8 19 bd 29 d3 8e 3c
       0.029287674 0.009463284 -0.03757479 0.017434673
000140 62 02 de 3c 4a 8a 18 bd 11 9f 1c 3c 63 aa 8c 3c
       0.027100746 -0.037241258 0.009559409 0.01717109
000150 a8 7b b2 3c 9b 96 b9 bc 62 61 f2 bc d0 45 f3 3b
       0.02178748 -0.022654822 -0.029587451 0.007424094
000160 5c 8b d9 bc dc 0e 85 bd 05 ce 81 3d 77 2c c9 bc
       -0.02655571 -0.06496975 0.06338123 -0.024557335
000170 28 99 69 3d f2 7c 1b bd 46 ed 93 bc 0d 70 f3 bb
       0.057030827 -0.037960954 -0.018057477 -0.007429129
000180 b7 c2 e3 bc 10 a3 43 3a 5e 0a b3 3b 87 94 b6 bc
       -0.027802808 0.0007462958 0.0054638823 -0.02228762
000190 89 d4 1a 3a 8e eb e1 3c 08 36 9f 3d 51 0a 1d bd
       0.0005906304 0.027578142 0.077739775 -0.038339917
0001a0 28 b0 16 3d ee 08 c0 bc c1 f6 68 bb 69 83 f9 3b
       0.03678909 -0.023441758 -0.0035547467 0.0076145423
0001b0 20 75 8f 3d 5d d8 34 bc 0d c6 3b bc f3 6f 6f bc
       0.07004762 -0.011037913 -0.011460793 -0.014614093
0001c0 5b c0 8d 3d cb 89 13 3c 4d d3 3e 3d b6 ce f2 bc
       0.069214545 0.00900502 0.04658823 -0.029639583
0001d0 de 2a 9b 3d 32 68 a4 bc 92 c1 32 bd bc 06 80 bd
       0.07576536 -0.020069215 -0.043641634 -0.062512845

fc2.weight f4 [84, 120]
000000 6a 77 5d bd 77 d8 ae bd 25 56 2d bd 7f 8f 56 3d
       -0.05406896 -0.08537381 -0.042318482 0.052382942
000010 a1 ab 87 bd 98 00 a6 bd 66 ea 0d bc e3 19 e6 bb
       -0.066245325 -0.08105582 -0.008661842 -0.007022129
000020 b0 88 37 bd fb e9 96 3d 17 c8 75 bc fb 3f e7 bc
       -0.04480809 0.07368847 -0.015001318 -0.02822875
000030 3c c8 b7 3d cd 2d 4f bd 5d 8f f4 3a 14 18 a6 3d
       0.089737386 -0.05058079 0.0018658448 0.08110061
000040 ee 4a 69 3d a8 78 81 3d f1 57 5f 3d 6e d8 16 bd
       0.056956224 0.063218415 0.054527227 -0.036827497
000050 52 85 3b 3d 35 ff 87 3d a3 93 80 3d 9b 71 8d bd
       0.04578144 0.06640474 0.062781595 -0.06906434
000060 f2 7e a8 bb 90 d3 73 3d 01 9f 8a 3d 30 24 dd 3b
       -0.005142086 0.059527934 0.06768609 0.0067486987
000070 61 37 49 bd 4e 1e 18 3d 78 fa 77 bd 7d 5b 6b bb
       -0.04912508 0.037138276 -0.0605416 -0.0035912686
000080 d4 21 81 bd 0a dd 62 bd 74 fc d2 3d 40 62 22 ba
       -0.0630528 -0.05538658 0.10302058 -0.000619445
000090 4c 08 07 3d 1c ff 86 bd 80 8e 3d 3d ef e0 2c bd
       0.032966897 -0.06591627 0.046278477 -0.0422067
0000a0 01 2c 6e bd 94 6e 89 bd 5b 67 80 3d ba 68 83 3d
       -0.058147434 -0.06710544 0.062697135 0.064164594
0000b0 b9 2b cb bd fd 75 0e bd 8c 9b b7 bd 93 ab a6 bd
       -0.09920449 -0.03478049 -0.08965215 -0.08138194
0000c0 84 d2 6d 3d 1b f7 ca 3c 97 8c cd 3d 30 2c ba bd
       0.05806209 0.024776032 0.10036581 -0.09090459
0000d0 83 f1 b0 3c 06 5b 9c bd 1e bc 09 bd c3 d8 98 3d
       0.021599537 -0.07634549 -0.03362667 0.07463219
0000e0 be 77 82 3d 07 eb 1d bc f9 c1 ff 3d ee 5d e6 bc
       0.06370495 -0.009638554 0.12488169 -0.028120961
0000f0 b5 74 6d 3d e2 b4 80 3c 1c 9d 77 bd 6a e5 54 bd
       0.05797263 0.015711252 -0.060452566 -0.0519766
000100 a7 03 d1 3d f1 b1 b5 bc d7 5a b9 b9 90 f8 6b 3d
       0.10205775 -0.022179576 -0.0003535363 0.057610095
000110 c5 43 8e bd ea 66 82 bc a4 bd 01 3d dd 0a a4 3c
       -0.0694652 -0.015918214 0.031674996 0.020024711
000120 4c 55 bf bc bf 3c 82 3d dc fd d3 ba 0f d4 19 3d
       -0.023356102 0.06359243 -0.0016173678 0.03755575
000130 f3 12 a1 bd 4a 33 13 bd 5b 3d a6 bd 69 33 e2 3c
       -0.078649424 -0.035937585 -0.081171714 0.027612405
000140 93 18 7c bd b3 b3 a1 3d df 0d dd 3c 10 c8 f8 bc
       -0.061546873 0.07895603 0.026984153 -0.030368835
000150 f6 2e 43 bd 0f 06 7f 3c 4c ee 23 bc eb 59 c2 3b
       -0.047652207 0.015565409 -0.010005545 0.005931129
000160 d0 1e 6e 3c c0 1e 1e bd bb e0 4e 3d 3a cd 58 bb
       0.014533713 -0.038603544 0.05050729 -0.003308131
000170 ea ab a5 3d a3 8e 95 bd 72 3b b6 3c 75 71 f7 bc
       0.08089431 -0.073025964 0.022245143 -0.030205468
000180 df 65 ae bd a4 08 f3 3b 30 26 a7 bd 98 42 ff 3c
       -0.08515524 0.0074168015 -0.081615806 0.031159684
000190 17 6f a9 ba 49 09 02 3d ec 87 5b 3d 60 a7 db 3b
       -0.0012926784 0.031747136 0.053596422 0.0067033023
0001a0 c5 bb 9a 3d be 9f a4 3d 76 10 50 3d d1 92 8e 3d
       0.075553454 0.08038281 0.05079695 0.06961597
0001b0 c4 6f af 3d e4 a6 2e 3d 50 a9 c1 bd b1 13 85 3d
       0.085662395 0.042639628 -0.09456122 0.064978965
0001c0 ae 22 7a 3d ed 50 6e bd 1e a5 9e 3d 31 47 8b 3d
       0.06106823 -0.058182646 0.07746337 0.06800688
0001d0 8e 38 87 3b 40 ea 51 bd be 70 2c 3d 74 df 74 3d
       0.004126615 -0.05124879 0.042099707 0.059783414
0001e0 c5 f5 8b bc 0d a4 19 bd c4 c3 51 bd 9a ed 14 bd
       -0.017084965 -0.037509967 -0.051212087 -0.036359407
0001f0 4c 49 ab 3c b0 5a c3 3c 47 e8 c4 3c f9 7a 91 bd
       0.020908974 0.023846954 0.02403654 -0.07103533
000200 e8 b0 59 3d ef d0 cb 3c fc bd 2a 3d 1d 09 8c 3c
       0.053147227 0.0248799 0.04168509 0.01709419
000210 01 c3 97 bd 99 38 b3 3c 84 8f 4a 3c fc 32 a2 bd
       -0.07410241 0.021877574 0.012363318 -0.07919881
000220 b1 ae f7 3c 36 f8 6b bd 7c 07 96 bd 10 4d 87 3d
       0.030234667 -0.05760976 -0.07325646 0.066064954
000230 54 89 96 bc 74 6b b3 bd 05 a7 a3 3d ce 0e da bc
       -0.01837603 -0.087607294 0.07990841 -0.026618388
000240 f8 77 f4 ba b3 96 aa bd 42 73 48 3d a5 28 4a bd
       -0.0018651476 -0.08329525 0.048938043 -0.049355168
000250 14 9b 12 3d d4 ee c7 3c 4f c7 97 3d 68 55 8a 3b
       0.035792425 0.024405874 0.07411062 0.004221607
000260 c9 5c b2 3c 91 73 25 3c 82 be 11 bc ed 23 55 3d
       0.021772759 0.010098354 -0.008895518 0.052036215
000270 6b db 91 3d 07 74 b0 3d 4f 34 e9 3c 2b 7a 1b 3d
       0.07121929 0.086158805 0.028467325 0.037958305
000280 16 bc ae bd c4 a9 75 3d c6 28 34 bd 5e 22 a9 bb
       -0.08531968 0.059976354 -0.043984197 -0.0051615676
000290 50 35 ea bc d6 74 2b 3c ad 1f 75 3d 83 12 24 bd
       -0.028589875 0.010464868 0.05984466 -0.040056717
0002a0 bc 12 ba bd ab 53 40 bd 21 a4 59 bd 80 37 b9 bd
       -0.090856045 -0.046954792 -0.05313504 -0.09043789
0002b0 9c 71 55 bb bd 24 9e 3d e3 cd 68 3d 7b c7 28 bd
       -0.0032568937 0.07721851 0.056836974 -0.041205864
0002c0 44 df 9d bc ba 80 33 3d 24 30 a5 3b 96 49 96 3d
       -0.0192715 0.043823935 0.005041139 0.07338254
0002d0 64 84 96 3d 65 f7 c9 bb f9 d6 00 bd 2c 76 ef bc
       0.0734947 -0.006163525 -0.031455014 -0.029231153
0002e0 60 32 91 bd 19 b5 ef 3c 2d 96 58 3d 72 33 69 bc
       -0.070896864 0.029261159 0.052877594 -0.014233457
0002f0 08 7b 96 3d ff 58 0f 3d 94 d2 d0 3a ff 9b 10 bd
       0.07347685 0.034996983 0.0015931898 -0.03530502
000300 b9 e4 f7 3c 3c de aa 3d 47 1f 48 bc 06 83 70 bd
       0.03026043 0.08343169 -0.012214488 -0.058718704
000310 c1 a8 76 bd df c8 8c bd e9 d2 b5 bd f6 27 0b 3d
       -0.06021953 -0.068742506 -0.088781185 0.033973657
000320 09 f5 58 3d 76 39 67 bd 14 61 30 3d 1d 9f 80 3d
       0.05296806 -0.056451283 0.04306133 0.062803484
000330 df ec 09 3d 0f 88 51 3d aa 1d f4 bc 38 45 a3 bd
       0.033673164 0.051155146 -0.029799301 -0.07972187
000340 ef 46 7b 3d e6 47 aa 3b 68 6b 15 bd bd 41 b4 3c
       0.061346944 0.0051965592 -0.036479384 0.022004003
000350 a0 6a 2e bd a1 e3 90 3d 51 04 08 bc 97 87 8b bd
       -0.042582154 0.07074667 -0.00830181 -0.06812971
000360 98 a5 63 3d 6b 6c 43 3d ce 42 d6 bc 86 31 1a bd
       0.055577844 0.047710817 -0.026154902 -0.037644885
000370 23 27 2f 3d a7 63 92 bd c8 5e 92 bc ec 42 33 bb
       0.042761933 -0.071479134 -0.01786746 -0.002735312
000380 d0 a4 19 3d 88 82 54 bd 6d 2d 8a 3d 3d 61 2b 3d
       0.037510693 -0.051882297 0.067469455 0.04184078
000390 af 24 a5 3d a4 37 9f bd 8c ed 9a bc d5 ac 94 3c
       0.080636375 -0.077742845 -0.0189121 0.018148819
0003a0 26 90 4e 3c d7 b6 b8 3d 47 3c 92 3b 6a 97 59 bd
       0.01260761 0.09019249 0.004462752 -0.053122915
0003b0 76 0a 34 bd 96 ef 29 bd 52 99 52 bd f1 2e b5 3c
       -0.04395529 -0.041488253 -0.05141575 0.02211711
0003c0 55 44 11 3b bf 27 42 bd b1 a5 62 bd 48 6d c3 bc
       0.0022165973 -0.047401186 -0.055333797 -0.02385582
0003d0 e0 a4 f9 3c 5f d5 10 bd 2a 6d a3 b9 8f 36 5c 3d
       0.030474126 -0.035359737 -0.00031171116 0.05376297
0003e0 05 02 5b 3d e3 31 9b bd 65 ea c1 3d 20 57 b4 3d
       0.053468723 -0.075778745 0.09468535 0.0880568
0003f0 11 6d 5c bc 85 6f 6c bc 32 6e 71 3d 52 23 b2 3d
       -0.013453738 -0.014430885 0.05894298 0.08698143

fc2.bias f4 [84]
000000 b4 03 ce bd f0 4d 62 bd 41 0b 8d 3c 2a db 22 3b
       -0.100593 -0.05525011 0.01721728 0.002484987
000010 75 8d ba 3d ea d5 05 3e 9e 6b 28 bd 3f 99 31 3d
       0.09109012 0.13069883 -0.041118257 0.043359037
000020 29 1b fa 3c 7a 38 8b bd eb ab 31 bd c5 72 56 3e
       0.03053053 -0.067978814 -0.043376844 0.20942219
000030 d6 dd 8e 3c 2b c3 5e bb 07 04 47 3c 12 3d e2 3b
       0.017439764 -0.003399084 0.012146956 0.006904253
000040 1c 51 b3 bd d9 a9 c5 3d 92 35 32 bc 52 95 47 3c
       -0.08755705 0.096515365 -0.01087703 0.012181597
000050 75 55 3b 3e 1b b1 35 3e 42 44 c7 3a c6 59 d4 3d
       0.18294318 0.17743342 0.0015202838 0.103686854
000060 ee 40 8a bd bf 3a 3b bd 26 ae a6 bd 73 85 0b bd
       -0.067506656 -0.04571032 -0.08138685 -0.034062814
000070 39 36 42 3d c3 fd 9b bc 1e 98 bf bd 93 02 4b bb
       0.047414992 -0.019041901 -0.09355186 -0.0030976876
000080 3c 5e aa bd 45 fd 3b bd cd 82 1c 3d ef 0c 3b 3d
       -0.08318755 -0.045895834 0.03821068 0.04566663
000090 49 24 45 bd 41 db 39 bd 41 ed 14 bd bc 1e d2 bc
       -0.048130307 -0.045375112 -0.036359075 -0.02564942
0000a0 f1 d0 68 3a b8 65 2b bd f0 22 8f bc bb 3e 0e bd
       0.00088812324 -0.041845053 -0.017472714 -0.034727793
0000b0 ee 72 94 bc 77 33 86 3d 3e 08 42 3d 5d f0 23 3e
       -0.018121209 0.06552785 0.04737114 0.1600966
0000c0 c9 7d 76 3e 54 6e 53 bd fb 0b 19 3c 9b e6 f1 bc
       0.2407142 -0.05161889 0.009341235 -0.029528907
0000d0 85 24 02 3e 74 90 98 bd 0d 5b c8 bd fd ba c6 3d
       0.12709244 -0.07449427 -0.097829916 0.09703634
0000e0 38 d6 61 3d 26 04 a6 3d 25 9c 50 3d 72 eb 26 3e
       0.055135936 0.0810626 0.05093016 0.16300753
0000f0 f9 f7 e5 bd e6 e2 63 39 48 3a b6 3d 53 f9 f0 3d
       -0.11228938 0.00021732933 0.08897835 0.11766305
000100 04 97 48 bd c1 6f 58 3d e7 e0 cd bd ff b0 b5 bd
       -0.048972145 0.05284095 -0.10052662 -0.0887165
000110 69 21 d7 3d d6 32 72 3e 84 16 99 3d ac f8 b1 3d
       0.10504419 0.23652205 0.07474998 0.086900085
000120 1c 2c a8 bc 45 e5 39 bc af 9f 8b bc 58 ee 5f 3e
       -0.020528845 -0.011346166 -0.017043917 0.21868265
000130 43 ba 76 3e 2a 76 d4 bb 10 2d 47 bd 51 65 a5 bd
       0.2409449 -0.006483813 -0.04862696 -0.08075965
000140 46 0e a1 ba 82 c6 10 3c 9f 28 0f be ce 6b b7 3d
       -0.0012287579 0.00883639 -0.1398034 0.08956109

fc3.weight f4 [10, 84]
000000 98 94 1b 3c 5a a4 bc 3c ba 2a 07 3e 0d 5f 9c 3d
       0.009495877 0.023027588 0.13199893 0.07635317
000010 09 6a 3c 3e f0 53 58 3d e0 3e 28 bd f0 5d cb 3d
       0.18399824 0.052814424 -0.041075587 0.099300265
000020 f7 d7 8d 3c cc 5a d6 bd 57 e6 1c bc 2e e5 a5 bd
       0.017314894 -0.10466537 -0.009576402 -0.08100353
000030 2f 51 69 3e ad 78 27 be 1d 55 a6 bd 1b 2f 66 bd
       0.22784875 -0.16354628 -0.08121703 -0.056197267
000040 2a 68 a3 bd 38 09 eb bb 45 ea b1 3d 3a 54 95 3d
       -0.07978852 -0.00717273 0.086872615 0.072914556
000050 9f 26 aa 3c f4 46 1e be d4 06 3b 3d 3b 69 47 3d
       0.02077037 -0.15456754 0.04566081 0.04868434
000060 8d 36 85 3d 9c 47 20 be ae cc a1 bc 1e 99 e4 3c
       0.06504545 -0.15652317 -0.01975092 0.027905043
000070 9f 3c 9a bc d8 59 ff 3d 9d d9 b8 3d 27 60 bf 3d
       -0.018827735 0.12468308 0.090258814 0.093445115
000080 0d 97 92 3d d3 4a 90 3d d4 ec fd 3d 6d 48 37 be
       0.07157717 0.070455216 0.12398687 -0.17898722
000090 c8 45 e0 bd 53 a2 9f 3c c8 c3 b2 3d 79 42 cf bd
       -0.1095081 0.019486582 0.087287486 -0.101201005
0000a0 f0 66 0c 3d 78 0f 92 3d 80 3a 30 bc 83 38 28 bd
       0.034277856 0.07131857 -0.010756135 -0.04106952
0000b0 50 1f 2b bd 66 a9 1e be 19 18 d0 bd e9 07 61 3d
       -0.04177791 -0.15494308 -0.10160846 0.054939184
0000c0 47 15 16 be 6a 02 a7 3d 2e c3 8b bd 35 3e 84 bd
       -0.14656554 0.08154757 -0.06824337 -0.064571775
0000d0 3a 06 10 bd 02 cd b1 bc 4f aa 28 3e 06 12 09 bc
       -0.035162188 -0.0217042 0.16471218 -0.0083661135
0000e0 4b 0f b2 bc 31 8f 7b bc 40 24 dd bd cf 4a 10 be
       -0.021735808 -0.015353964 -0.1079793 -0.14091037
0000f0 5f e2 b0 bb 62 8d db 3d 73 46 bd 3d 39 7f 55 3c
       -0.0053980793 0.10720326 0.09241953 0.0130308205
000100 7f 01 1f bc 27 9c a4 bd 08 e5 11 bd 5a 43 db bd
       -0.009704947 -0.08037596 -0.03561881 -0.10706206
000110 49 20 82 3d 8b 00 bd 3b 41 32 1c 3d a5 e5 d0 bc
       0.06353814 0.005767887 0.038133863 -0.025500128
000120 b7 d1 2f 3d 80 00 d6 3d af d6 5b bd ae 00 a7 3c
       0.04292461 0.10449314 -0.053671535 0.020386066
000130 1c f3 07 be ed 32 f2 ba e3 3c 03 3d d4 7a 9d 3c
       -0.13276333 -0.0018478312 0.032040488 0.019223608
000140 e2 01 3e 3e d5 7e d8 3c 18 e9 5e 3e a4 55 8c 3d
       0.18555406 0.026427666 0.21768606 0.06852272
000150 d2 07 55 bd 4c 68 1f 3d 9b ef 00 3e 6e 72 e2 bc
       -0.05200941 0.038917825 0.12591402 -0.027642455
000160 0d b7 0f be 04 77 8f bd 67 63 99 bd f4 9e b2 bc
       -0.14034672 -0.07005122 -0.074896626 -0.02180431
000170 aa 9c e2 bd 84 88 72 3d cc ae d2 38 a7 82 8b be
       -0.110650375 0.059212223 0.00010046139 -0.27248117
000180 cd fb 4b 3c ad 86 ee 3d 32 e5 29 be c6 77 13 bc
       0.012450171 0.11646781 -0.16591337 -0.009000724
000190 45 8a 0c 3e 93 80 b9 3b 89 e6 b1 3d 89 a8 8a 3d
       0.1372462 0.005661079 0.08686549 0.06770427
0001a0 0f 7b a8 bd fb c4 75 be c9 1e 32 bd 9f 1f 16 bd
       -0.082265966 -0.24000923 -0.04348639 -0.03665125
0001b0 f4 0f 58 3d d9 f1 24 bd 40 d2 06 3e ae 9c e0 bd
       0.05274959 -0.040269706 0.13166142 -0.10967384
0001c0 6d 4c 2d be 76 3c 11 3e cf a8 fa 3d a5 5e 3b bc
       -0.16923685 0.1418322 0.12239229 -0.011436139
0001d0 a8 7a 31 bd 33 1d cb bd fc 6e 05 bd 92 b6 18 3e
       -0.043329865 -0.09917679 -0.032576546 0.14913395
0001e0 67 db b7 3d d7 c0 dc 3c 63 78 33 bd 3d a4 b6 bc
       0.089773946 0.026947422 -0.04381598 -0.022295112
0001f0 9e 8f 20 bd 4a 35 27 bd 03 14 3c 3d bc 9f 33 bd
       -0.039199464 -0.040822305 0.045917522 -0.043853506
000200 d6 9d 16 3e 27 dc ce bd a7 f1 2b be 44 0d 0a bd
       0.14708647 -0.101005845 -0.16791402 -0.033704057
000210 4a 21 c9 bb 6a 20 b0 bd 15 2d fe bd a6 96 a1 3d
       -0.0061380016 -0.085999325 -0.124109425 0.07890062
000220 38 47 9a be f4 09 15 bd c3 98 75 3d 65 92 c0 bc
       -0.3013246 -0.036386445 0.059960138 -0.023507306
000230 99 fc e6 bb a3 63 f3 3b 36 17 4a 3e d9 f0 17 be
       -0.007049155 0.007427649 0.19735417 -0.1483797
000240 87 0d 23 be 87 c0 b0 bd d5 ea 01 be b1 1d de bc
       -0.15923129 -0.08630472 -0.12687238 -0.027113767
000250 84 35 ce bd e6 67 24 bd 21 a5 2e bd 94 e3 60 3e
       -0.10068801 -0.040138148 -0.042637948 0.21961814
000260 fc 8a a6 bd de 58 7e be 02 b4 b7 bc a4 32 f9 3d
       -0.08131978 -0.24838588 -0.022424702 0.12167862
000270 12 70 e5 3d f1 3b c2 bd e9 3e b0 3d 96 46 11 be
       0.11203016 -0.09484089 0.08605749 -0.14187083
000280 84 87 0d bc 17 57 e4 bd d7 c7 6d bd 3e d5 8b bd
       -0.0086382665 -0.111494236 -0.05805191 -0.06827782
000290 16 fd 16 bd fd a1 1f 3e be 4a 6f 3e db 19 38 3e
       -0.036862455 0.15589137 0.23368356 0.17978613
0002a0 d7 0e 1c be 0f 17 9e 3c 4e 11 1d 3d 62 0f d3 3d
       -0.15240036 0.019298105 0.03834658 0.103056684
0002b0 3c 98 a3 bd b9 f7 8c 3d f4 aa 0f 3d 19 4d d2 bd
       -0.07988021 0.06883187 0.035075143 -0.102686115
0002c0 29 65 05 bd 46 f2 06 3a 07 4b 0f be 8a 31 36 3e
       -0.032567177 0.0005147796 -0.13993464 0.17792335
0002d0 8f 69 c3 3d c5 fe 34 3d 93 55 7e bd da 29 bb bd
       0.09541618 0.04418828 -0.06209333 -0.09138842
0002e0 3e d4 31 bb 61 40 b2 3d e7 48 26 bd 67 d8 a8 bd
       -0.0027134563 0.087036856 -0.04059687 -0.082444005
0002f0 a7 48 1a 3e c3 c5 27 3c 0a 11 4a 3d 9c 45 90 bd
       0.15066777 0.010240021 0.049332656 -0.07044527
000300 f7 e6 be bb e9 07 22 bc f0 f0 1b bc c3 40 2e be
       -0.005825873 -0.009889581 -0.009517893 -0.17016892
000310 6b f4 f4 3d 1e 05 9a 3c 7b ff 62 bd f9 a8 aa 3d
       0.119606815 0.018801268 -0.055419426 0.0833301
000320 3d 00 ec bc ff 5f 9d bc b5 73 5a bd a7 9a 43 be
       -0.028808707 -0.019210814 -0.053333003 -0.19101964
000330 99 46 75 bd 26 f2 6c bd 5c fb 37 be b1 0c 80 3a
       -0.05988178 -0.05784812 -0.1796698 0.0009769407
000340 e9 bc 66 3c 28 06 79 3d 08 4f 24 3d 98 4e d6 3d
       0.014083126 0.060796887 0.040114433 0.10464209
000350 89 1a 8b bd 7a 00 7d bd b8 fa 1c 3e f3 75 f4 3d
       -0.067921706 -0.061768033 0.15330017 0.119365595
000360 ce 32 fa 3d 6c df 93 bd 75 3f 2d 3e 06 92 e0 bd
       0.122167215 -0.07220349 0.16918738 -0.10965352
000370 76 1d 38 3e 47 13 5c 3c 84 13 a4 3c 21 8d 0d 3e
       0.17979988 0.01343233 0.020028837 0.13823368
000380 6a 26 27 3d 6c 60 0c be 36 be 2d be 34 b2 06 bd
       0.04080812 -0.13708657 -0.16967091 -0.03288479
000390 6b 76 15 be 5c f2 14 3d c2 89 6c 3d 0a 5e 3c 3e
       -0.14595954 0.036363944 0.057748564 0.18395248
0003a0 87 8d 26 3b 8e f1 41 3d 6f b3 1a 3b 3a 9f 3f be
       0.0025413947 0.047349505 0.0023605486 -0.18713084
0003b0 c0 26 3d 3c 9c b8 2c 3e b2 a1 0c 3e 3b b0 92 3c
       0.011544883 0.16867298 0.13733557 0.017906299
0003c0 7a 30 89 3d 3d 12 b1 bd 85 52 43 bd 85 81 d9 3d
       0.06698699 -0.08646057 -0.04768612 0.10620407
0003d0 43 31 cd 3d 2b d1 a9 3d 23 2e 4f bd 29 8f 53 3d
       0.100191616 0.08291849 -0.05058111 0.0516502
0003e0 7f 70 64 3d eb 62 7c 3d 10 da 93 bc 01 9a c4 3d
       0.055771347 0.061617773 -0.018048316 0.095996864
0003f0 0e cb 6f bd 08 4a c4 bd dc 4c 90 bd 9d f9 42 bd
       -0.058543257 -0.09584433 -0.0704591 -0.04760133

fc3.bias f4 [10]
000000 f3 20 a0 be c9 f3 76 be b3 22 04 3e 77 30 87 3c
       -0.31275138 -0.24116434 0.12903862 0.016502602
000010 4f 0c f0 3e f4 3c 07 be 12 2f c4 3e 47 a3 69 bd
       0.4688439 -0.13206846 0.38317162 -0.05704048
000020 e7 90 22 be 86 ac 96 be
       -0.15875588 -0.294285
